{"format": "graph-model", "generatedBy": "2.19.0", "convertedBy": "TensorFlow.js Converter v4.22.0", "signature": {"outputs": {"Identity:0": {"name": "Identity:0"}}}, "modelTopology": {"node": [{"name": "ConstantFolding/model_13/tf.math.divide/truediv_recip", "op": "Const", "attr": {"value": {"tensor": {"dtype": "DT_FLOAT", "tensorShape": {}}}, "dtype": {"type": "DT_FLOAT"}}}, {"name": "model_13/tf.strided_slice_19/ones_like/tensor", "op": "Const", "attr": {"value": {"tensor": {"dtype": "DT_INT64", "tensorShape": {"dim": [{"size": "3"}]}}}, "dtype": {"type": "DT_INT64"}}}, {"name": "model_13/tf.strided_slice_19/StridedSlice/end", "op": "Const", "attr": {"value": {"tensor": {"dtype": "DT_INT64", "tensorShape": {"dim": [{"size": "3"}]}}}, "dtype": {"type": "DT_INT64"}}}, {"name": "model_13/tf.strided_slice_19/ones_like", "op": "Const", "attr": {"value": {"tensor": {"dtype": "DT_INT64", "tensorShape": {"dim": [{"size": "3"}]}}}, "dtype": {"type": "DT_INT64"}}}, {"name": "model_13/tf.math.add_75/Add/y", "op": "Const", "attr": {"value": {"tensor": {"dtype": "DT_FLOAT", "tensorShape": {"dim": [{"size": "1"}, {"size": "2"}, {"size": "13125"}]}}}, "dtype": {"type": "DT_FLOAT"}}}, {"name": "model_13/24052", "op": "Const", "attr": {"value": {"tensor": {"dtype": "DT_FLOAT", "tensorShape": {"dim": [{"size": "1"}, {"size": "2"}, {"size": "13125"}]}}}, "dtype": {"type": "DT_FLOAT"}}}, {"name": "model_13/tf.strided_slice_16/StridedSlice/begin", "op": "Const", "attr": {"value": {"tensor": {"dtype": "DT_INT32", "tensorShape": {"dim": [{"size": "3"}]}}}, "dtype": {"type": "DT_INT32"}}}, {"name": "model_13/tf.strided_slice_16/StridedSlice/end", "op": "Const", "attr": {"value": {"tensor": {"dtype": "DT_INT32", "tensorShape": {"dim": [{"size": "3"}]}}}, "dtype": {"type": "DT_INT32"}}}, {"name": "model_13/tf.strided_slice_16/ones_like", "op": "Const", "attr": {"value": {"tensor": {"dtype": "DT_INT32", "tensorShape": {"dim": [{"size": "3"}]}}}, "dtype": {"type": "DT_INT32"}}}, {"name": "model_13/tf.reshape_11/Reshape/shape", "op": "Const", "attr": {"value": {"tensor": {"dtype": "DT_INT32", "tensorShape": {"dim": [{"size": "4"}]}}}, "dtype": {"type": "DT_INT32"}}}, {"name": "model_13/tf.compat.v1.transpose_82/transpose/perm", "op": "Const", "attr": {"value": {"tensor": {"dtype": "DT_INT32", "tensorShape": {"dim": [{"size": "4"}]}}}, "dtype": {"type": "DT_INT32"}}}, {"name": "model_13/tf.compat.v1.transpose_83/transpose/perm", "op": "Const", "attr": {"value": {"tensor": {"dtype": "DT_INT32", "tensorShape": {"dim": [{"size": "4"}]}}}, "dtype": {"type": "DT_INT32"}}}, {"name": "model_13/tf.nn.convolution_63/convolution/filter", "op": "Const", "attr": {"value": {"tensor": {"dtype": "DT_FLOAT", "tensorShape": {"dim": [{"size": "1"}, {"size": "1"}, {"size": "16"}, {"size": "1"}]}}}, "dtype": {"type": "DT_FLOAT"}}}, {"name": "model_13/tf.compat.v1.transpose_88/transpose/perm", "op": "Const", "attr": {"value": {"tensor": {"dtype": "DT_INT32", "tensorShape": {"dim": [{"size": "4"}]}}}, "dtype": {"type": "DT_INT32"}}}, {"name": "model_13/tf.reshape_14/Reshape/shape", "op": "Const", "attr": {"value": {"tensor": {"dtype": "DT_INT32", "tensorShape": {"dim": [{"size": "3"}]}}}, "dtype": {"type": "DT_INT32"}}}, {"name": "model_13/tf.strided_slice_18/ones_like/tensor", "op": "Const", "attr": {"value": {"tensor": {"dtype": "DT_INT64", "tensorShape": {"dim": [{"size": "3"}]}}}, "dtype": {"type": "DT_INT64"}}}, {"name": "model_13/tf.strided_slice_18/StridedSlice/end", "op": "Const", "attr": {"value": {"tensor": {"dtype": "DT_INT64", "tensorShape": {"dim": [{"size": "3"}]}}}, "dtype": {"type": "DT_INT64"}}}, {"name": "model_13/tf.strided_slice_18/ones_like", "op": "Const", "attr": {"value": {"tensor": {"dtype": "DT_INT64", "tensorShape": {"dim": [{"size": "3"}]}}}, "dtype": {"type": "DT_INT64"}}}, {"name": "model_13/tf.concat_20/concat/axis", "op": "Const", "attr": {"value": {"tensor": {"dtype": "DT_INT32", "tensorShape": {}}}, "dtype": {"type": "DT_INT32"}}}, {"name": "model_13/tf.math.multiply_252/Mul/y", "op": "Const", "attr": {"value": {"tensor": {"dtype": "DT_FLOAT", "tensorShape": {"dim": [{"size": "1"}, {"size": "1"}, {"size": "13125"}]}}}, "dtype": {"type": "DT_FLOAT"}}}, {"name": "model_13/tf.nn.convolution_36/convolution/filter", "op": "Const", "attr": {"value": {"tensor": {"dtype": "DT_FLOAT", "tensorShape": {"dim": [{"size": "3"}, {"size": "3"}, {"size": "64"}, {"size": "64"}]}}}, "dtype": {"type": "DT_FLOAT"}}}, {"name": "model_13/tf.math.add_48/Add/y", "op": "Const", "attr": {"value": {"tensor": {"dtype": "DT_FLOAT", "tensorShape": {"dim": [{"size": "64"}]}}}, "dtype": {"type": "DT_FLOAT"}}}, {"name": "model_13/tf.nn.convolution_38/convolution/filter", "op": "Const", "attr": {"value": {"tensor": {"dtype": "DT_FLOAT", "tensorShape": {"dim": [{"size": "3"}, {"size": "3"}, {"size": "64"}, {"size": "64"}]}}}, "dtype": {"type": "DT_FLOAT"}}}, {"name": "model_13/tf.math.add_50/Add/y", "op": "Const", "attr": {"value": {"tensor": {"dtype": "DT_FLOAT", "tensorShape": {"dim": [{"size": "64"}]}}}, "dtype": {"type": "DT_FLOAT"}}}, {"name": "model_13/tf.nn.convolution_41/convolution/filter", "op": "Const", "attr": {"value": {"tensor": {"dtype": "DT_FLOAT", "tensorShape": {"dim": [{"size": "1"}, {"size": "1"}, {"size": "64"}, {"size": "64"}]}}}, "dtype": {"type": "DT_FLOAT"}}}, {"name": "model_13/tf.math.add_53/Add/y", "op": "Const", "attr": {"value": {"tensor": {"dtype": "DT_FLOAT", "tensorShape": {"dim": [{"size": "64"}]}}}, "dtype": {"type": "DT_FLOAT"}}}, {"name": "model_13/tf.nn.convolution_37/convolution/filter", "op": "Const", "attr": {"value": {"tensor": {"dtype": "DT_FLOAT", "tensorShape": {"dim": [{"size": "3"}, {"size": "3"}, {"size": "64"}, {"size": "64"}]}}}, "dtype": {"type": "DT_FLOAT"}}}, {"name": "model_13/tf.math.add_49/Add/y", "op": "Const", "attr": {"value": {"tensor": {"dtype": "DT_FLOAT", "tensorShape": {"dim": [{"size": "64"}]}}}, "dtype": {"type": "DT_FLOAT"}}}, {"name": "model_13/tf.nn.convolution_39/convolution/filter", "op": "Const", "attr": {"value": {"tensor": {"dtype": "DT_FLOAT", "tensorShape": {"dim": [{"size": "3"}, {"size": "3"}, {"size": "64"}, {"size": "64"}]}}}, "dtype": {"type": "DT_FLOAT"}}}, {"name": "model_13/tf.math.add_51/Add/y", "op": "Const", "attr": {"value": {"tensor": {"dtype": "DT_FLOAT", "tensorShape": {"dim": [{"size": "64"}]}}}, "dtype": {"type": "DT_FLOAT"}}}, {"name": "model_13/tf.nn.convolution_42/convolution/filter", "op": "Const", "attr": {"value": {"tensor": {"dtype": "DT_FLOAT", "tensorShape": {"dim": [{"size": "1"}, {"size": "1"}, {"size": "64"}, {"size": "7"}]}}}, "dtype": {"type": "DT_FLOAT"}}}, {"name": "model_13/tf.math.add_54/Add/y", "op": "Const", "attr": {"value": {"tensor": {"dtype": "DT_FLOAT", "tensorShape": {"dim": [{"size": "7"}]}}}, "dtype": {"type": "DT_FLOAT"}}}, {"name": "model_13/tf.concat_10/concat/axis", "op": "Const", "attr": {"value": {"tensor": {"dtype": "DT_INT32", "tensorShape": {}}}, "dtype": {"type": "DT_INT32"}}}, {"name": "model_13/tf.compat.v1.transpose_49/transpose/perm", "op": "Const", "attr": {"value": {"tensor": {"dtype": "DT_INT32", "tensorShape": {"dim": [{"size": "4"}]}}}, "dtype": {"type": "DT_INT32"}}}, {"name": "model_13/tf.reshape_2/Reshape/shape", "op": "Const", "attr": {"value": {"tensor": {"dtype": "DT_INT32", "tensorShape": {"dim": [{"size": "3"}]}}}, "dtype": {"type": "DT_INT32"}}}, {"name": "model_13/tf.nn.convolution_47/convolution/filter", "op": "Const", "attr": {"value": {"tensor": {"dtype": "DT_FLOAT", "tensorShape": {"dim": [{"size": "3"}, {"size": "3"}, {"size": "128"}, {"size": "64"}]}}}, "dtype": {"type": "DT_FLOAT"}}}, {"name": "model_13/tf.math.add_59/Add/y", "op": "Const", "attr": {"value": {"tensor": {"dtype": "DT_FLOAT", "tensorShape": {"dim": [{"size": "64"}]}}}, "dtype": {"type": "DT_FLOAT"}}}, {"name": "model_13/tf.nn.convolution_49/convolution/filter", "op": "Const", "attr": {"value": {"tensor": {"dtype": "DT_FLOAT", "tensorShape": {"dim": [{"size": "3"}, {"size": "3"}, {"size": "64"}, {"size": "64"}]}}}, "dtype": {"type": "DT_FLOAT"}}}, {"name": "model_13/tf.math.add_61/Add/y", "op": "Const", "attr": {"value": {"tensor": {"dtype": "DT_FLOAT", "tensorShape": {"dim": [{"size": "64"}]}}}, "dtype": {"type": "DT_FLOAT"}}}, {"name": "model_13/tf.nn.convolution_52/convolution/filter", "op": "Const", "attr": {"value": {"tensor": {"dtype": "DT_FLOAT", "tensorShape": {"dim": [{"size": "1"}, {"size": "1"}, {"size": "64"}, {"size": "64"}]}}}, "dtype": {"type": "DT_FLOAT"}}}, {"name": "model_13/tf.math.add_64/Add/y", "op": "Const", "attr": {"value": {"tensor": {"dtype": "DT_FLOAT", "tensorShape": {"dim": [{"size": "64"}]}}}, "dtype": {"type": "DT_FLOAT"}}}, {"name": "model_13/tf.nn.convolution_48/convolution/filter", "op": "Const", "attr": {"value": {"tensor": {"dtype": "DT_FLOAT", "tensorShape": {"dim": [{"size": "3"}, {"size": "3"}, {"size": "128"}, {"size": "64"}]}}}, "dtype": {"type": "DT_FLOAT"}}}, {"name": "model_13/tf.math.add_60/Add/y", "op": "Const", "attr": {"value": {"tensor": {"dtype": "DT_FLOAT", "tensorShape": {"dim": [{"size": "64"}]}}}, "dtype": {"type": "DT_FLOAT"}}}, {"name": "model_13/tf.nn.convolution_50/convolution/filter", "op": "Const", "attr": {"value": {"tensor": {"dtype": "DT_FLOAT", "tensorShape": {"dim": [{"size": "3"}, {"size": "3"}, {"size": "64"}, {"size": "64"}]}}}, "dtype": {"type": "DT_FLOAT"}}}, {"name": "model_13/tf.math.add_62/Add/y", "op": "Const", "attr": {"value": {"tensor": {"dtype": "DT_FLOAT", "tensorShape": {"dim": [{"size": "64"}]}}}, "dtype": {"type": "DT_FLOAT"}}}, {"name": "model_13/tf.nn.convolution_53/convolution/filter", "op": "Const", "attr": {"value": {"tensor": {"dtype": "DT_FLOAT", "tensorShape": {"dim": [{"size": "1"}, {"size": "1"}, {"size": "64"}, {"size": "7"}]}}}, "dtype": {"type": "DT_FLOAT"}}}, {"name": "model_13/tf.math.add_65/Add/y", "op": "Const", "attr": {"value": {"tensor": {"dtype": "DT_FLOAT", "tensorShape": {"dim": [{"size": "7"}]}}}, "dtype": {"type": "DT_FLOAT"}}}, {"name": "model_13/tf.concat_13/concat/axis", "op": "Const", "attr": {"value": {"tensor": {"dtype": "DT_INT32", "tensorShape": {}}}, "dtype": {"type": "DT_INT32"}}}, {"name": "model_13/tf.compat.v1.transpose_63/transpose/perm", "op": "Const", "attr": {"value": {"tensor": {"dtype": "DT_INT32", "tensorShape": {"dim": [{"size": "4"}]}}}, "dtype": {"type": "DT_INT32"}}}, {"name": "model_13/tf.reshape_5/Reshape/shape", "op": "Const", "attr": {"value": {"tensor": {"dtype": "DT_INT32", "tensorShape": {"dim": [{"size": "3"}]}}}, "dtype": {"type": "DT_INT32"}}}, {"name": "model_13/tf.nn.convolution_57/convolution/filter", "op": "Const", "attr": {"value": {"tensor": {"dtype": "DT_FLOAT", "tensorShape": {"dim": [{"size": "3"}, {"size": "3"}, {"size": "256"}, {"size": "64"}]}}}, "dtype": {"type": "DT_FLOAT"}}}, {"name": "model_13/tf.math.add_69/Add/y", "op": "Const", "attr": {"value": {"tensor": {"dtype": "DT_FLOAT", "tensorShape": {"dim": [{"size": "64"}]}}}, "dtype": {"type": "DT_FLOAT"}}}, {"name": "model_13/tf.nn.convolution_59/convolution/filter", "op": "Const", "attr": {"value": {"tensor": {"dtype": "DT_FLOAT", "tensorShape": {"dim": [{"size": "3"}, {"size": "3"}, {"size": "64"}, {"size": "64"}]}}}, "dtype": {"type": "DT_FLOAT"}}}, {"name": "model_13/tf.math.add_71/Add/y", "op": "Const", "attr": {"value": {"tensor": {"dtype": "DT_FLOAT", "tensorShape": {"dim": [{"size": "64"}]}}}, "dtype": {"type": "DT_FLOAT"}}}, {"name": "model_13/tf.nn.convolution_61/convolution/filter", "op": "Const", "attr": {"value": {"tensor": {"dtype": "DT_FLOAT", "tensorShape": {"dim": [{"size": "1"}, {"size": "1"}, {"size": "64"}, {"size": "64"}]}}}, "dtype": {"type": "DT_FLOAT"}}}, {"name": "model_13/tf.math.add_73/Add/y", "op": "Const", "attr": {"value": {"tensor": {"dtype": "DT_FLOAT", "tensorShape": {"dim": [{"size": "64"}]}}}, "dtype": {"type": "DT_FLOAT"}}}, {"name": "model_13/tf.strided_slice_14/ones_like/tensor", "op": "Const", "attr": {"value": {"tensor": {"dtype": "DT_INT64", "tensorShape": {"dim": [{"size": "4"}]}}}, "dtype": {"type": "DT_INT64"}}}, {"name": "model_13/tf.strided_slice_14/StridedSlice/end", "op": "Const", "attr": {"value": {"tensor": {"dtype": "DT_INT64", "tensorShape": {"dim": [{"size": "4"}]}}}, "dtype": {"type": "DT_INT64"}}}, {"name": "model_13/tf.strided_slice_14/ones_like", "op": "Const", "attr": {"value": {"tensor": {"dtype": "DT_INT64", "tensorShape": {"dim": [{"size": "4"}]}}}, "dtype": {"type": "DT_INT64"}}}, {"name": "model_13/tf.strided_slice_12/ones_like/tensor", "op": "Const", "attr": {"value": {"tensor": {"dtype": "DT_INT64", "tensorShape": {"dim": [{"size": "4"}]}}}, "dtype": {"type": "DT_INT64"}}}, {"name": "model_13/tf.strided_slice_12/StridedSlice/end", "op": "Const", "attr": {"value": {"tensor": {"dtype": "DT_INT64", "tensorShape": {"dim": [{"size": "4"}]}}}, "dtype": {"type": "DT_INT64"}}}, {"name": "model_13/tf.strided_slice_12/ones_like", "op": "Const", "attr": {"value": {"tensor": {"dtype": "DT_INT64", "tensorShape": {"dim": [{"size": "4"}]}}}, "dtype": {"type": "DT_INT64"}}}, {"name": "model_13/tf.strided_slice_10/ones_like/tensor", "op": "Const", "attr": {"value": {"tensor": {"dtype": "DT_INT64", "tensorShape": {"dim": [{"size": "4"}]}}}, "dtype": {"type": "DT_INT64"}}}, {"name": "model_13/tf.strided_slice_10/StridedSlice/end", "op": "Const", "attr": {"value": {"tensor": {"dtype": "DT_INT64", "tensorShape": {"dim": [{"size": "4"}]}}}, "dtype": {"type": "DT_INT64"}}}, {"name": "model_13/tf.strided_slice_10/ones_like", "op": "Const", "attr": {"value": {"tensor": {"dtype": "DT_INT64", "tensorShape": {"dim": [{"size": "4"}]}}}, "dtype": {"type": "DT_INT64"}}}, {"name": "model_13/tf.image.resize_1/resize/size", "op": "Const", "attr": {"value": {"tensor": {"dtype": "DT_INT32", "tensorShape": {"dim": [{"size": "2"}]}}}, "dtype": {"type": "DT_INT32"}}}, {"name": "model_13/tf.concat_7/concat/axis", "op": "Const", "attr": {"value": {"tensor": {"dtype": "DT_INT32", "tensorShape": {}}}, "dtype": {"type": "DT_INT32"}}}, {"name": "model_13/tf.nn.convolution_31/convolution/filter", "op": "Const", "attr": {"value": {"tensor": {"dtype": "DT_FLOAT", "tensorShape": {"dim": [{"size": "1"}, {"size": "1"}, {"size": "192"}, {"size": "64"}]}}}, "dtype": {"type": "DT_FLOAT"}}}, {"name": "model_13/tf.math.add_43/Add/y", "op": "Const", "attr": {"value": {"tensor": {"dtype": "DT_FLOAT", "tensorShape": {"dim": [{"size": "64"}]}}}, "dtype": {"type": "DT_FLOAT"}}}, {"name": "model_13/tf.strided_slice_11/ones_like/tensor", "op": "Const", "attr": {"value": {"tensor": {"dtype": "DT_INT64", "tensorShape": {"dim": [{"size": "4"}]}}}, "dtype": {"type": "DT_INT64"}}}, {"name": "model_13/tf.strided_slice_11/StridedSlice/end", "op": "Const", "attr": {"value": {"tensor": {"dtype": "DT_INT64", "tensorShape": {"dim": [{"size": "4"}]}}}, "dtype": {"type": "DT_INT64"}}}, {"name": "model_13/tf.strided_slice_11/ones_like", "op": "Const", "attr": {"value": {"tensor": {"dtype": "DT_INT64", "tensorShape": {"dim": [{"size": "4"}]}}}, "dtype": {"type": "DT_INT64"}}}, {"name": "model_13/tf.nn.convolution_32/convolution/filter", "op": "Const", "attr": {"value": {"tensor": {"dtype": "DT_FLOAT", "tensorShape": {"dim": [{"size": "3"}, {"size": "3"}, {"size": "32"}, {"size": "32"}]}}}, "dtype": {"type": "DT_FLOAT"}}}, {"name": "model_13/tf.math.add_44/Add/y", "op": "Const", "attr": {"value": {"tensor": {"dtype": "DT_FLOAT", "tensorShape": {"dim": [{"size": "32"}]}}}, "dtype": {"type": "DT_FLOAT"}}}, {"name": "model_13/tf.nn.convolution_33/convolution/filter", "op": "Const", "attr": {"value": {"tensor": {"dtype": "DT_FLOAT", "tensorShape": {"dim": [{"size": "3"}, {"size": "3"}, {"size": "32"}, {"size": "32"}]}}}, "dtype": {"type": "DT_FLOAT"}}}, {"name": "model_13/tf.math.add_45/Add/y", "op": "Const", "attr": {"value": {"tensor": {"dtype": "DT_FLOAT", "tensorShape": {"dim": [{"size": "32"}]}}}, "dtype": {"type": "DT_FLOAT"}}}, {"name": "model_13/tf.concat_8/concat/axis", "op": "Const", "attr": {"value": {"tensor": {"dtype": "DT_INT32", "tensorShape": {}}}, "dtype": {"type": "DT_INT32"}}}, {"name": "model_13/tf.nn.convolution_34/convolution/filter", "op": "Const", "attr": {"value": {"tensor": {"dtype": "DT_FLOAT", "tensorShape": {"dim": [{"size": "1"}, {"size": "1"}, {"size": "96"}, {"size": "64"}]}}}, "dtype": {"type": "DT_FLOAT"}}}, {"name": "model_13/tf.math.add_46/Add/y", "op": "Const", "attr": {"value": {"tensor": {"dtype": "DT_FLOAT", "tensorShape": {"dim": [{"size": "64"}]}}}, "dtype": {"type": "DT_FLOAT"}}}, {"name": "model_13/tf.compat.v1.pad_5/Pad/paddings", "op": "Const", "attr": {"value": {"tensor": {"dtype": "DT_INT32", "tensorShape": {"dim": [{"size": "4"}, {"size": "2"}]}}}, "dtype": {"type": "DT_INT32"}}}, {"name": "model_13/tf.nn.convolution_35/convolution/filter", "op": "Const", "attr": {"value": {"tensor": {"dtype": "DT_FLOAT", "tensorShape": {"dim": [{"size": "3"}, {"size": "3"}, {"size": "64"}, {"size": "64"}]}}}, "dtype": {"type": "DT_FLOAT"}}}, {"name": "model_13/tf.math.add_47/Add/y", "op": "Const", "attr": {"value": {"tensor": {"dtype": "DT_FLOAT", "tensorShape": {"dim": [{"size": "64"}]}}}, "dtype": {"type": "DT_FLOAT"}}}, {"name": "model_13/tf.strided_slice_8/ones_like/tensor", "op": "Const", "attr": {"value": {"tensor": {"dtype": "DT_INT64", "tensorShape": {"dim": [{"size": "4"}]}}}, "dtype": {"type": "DT_INT64"}}}, {"name": "model_13/tf.strided_slice_8/StridedSlice/end", "op": "Const", "attr": {"value": {"tensor": {"dtype": "DT_INT64", "tensorShape": {"dim": [{"size": "4"}]}}}, "dtype": {"type": "DT_INT64"}}}, {"name": "model_13/tf.strided_slice_8/ones_like", "op": "Const", "attr": {"value": {"tensor": {"dtype": "DT_INT64", "tensorShape": {"dim": [{"size": "4"}]}}}, "dtype": {"type": "DT_INT64"}}}, {"name": "model_13/tf.image.resize/resize/size", "op": "Const", "attr": {"value": {"tensor": {"dtype": "DT_INT32", "tensorShape": {"dim": [{"size": "2"}]}}}, "dtype": {"type": "DT_INT32"}}}, {"name": "model_13/tf.concat_5/concat/axis", "op": "Const", "attr": {"value": {"tensor": {"dtype": "DT_INT32", "tensorShape": {}}}, "dtype": {"type": "DT_INT32"}}}, {"name": "model_13/tf.nn.convolution_27/convolution/filter", "op": "Const", "attr": {"value": {"tensor": {"dtype": "DT_FLOAT", "tensorShape": {"dim": [{"size": "1"}, {"size": "1"}, {"size": "384"}, {"size": "128"}]}}}, "dtype": {"type": "DT_FLOAT"}}}, {"name": "model_13/tf.math.add_39/Add/y", "op": "Const", "attr": {"value": {"tensor": {"dtype": "DT_FLOAT", "tensorShape": {"dim": [{"size": "128"}]}}}, "dtype": {"type": "DT_FLOAT"}}}, {"name": "model_13/tf.strided_slice_9/ones_like/tensor", "op": "Const", "attr": {"value": {"tensor": {"dtype": "DT_INT64", "tensorShape": {"dim": [{"size": "4"}]}}}, "dtype": {"type": "DT_INT64"}}}, {"name": "model_13/tf.strided_slice_9/StridedSlice/end", "op": "Const", "attr": {"value": {"tensor": {"dtype": "DT_INT64", "tensorShape": {"dim": [{"size": "4"}]}}}, "dtype": {"type": "DT_INT64"}}}, {"name": "model_13/tf.strided_slice_9/ones_like", "op": "Const", "attr": {"value": {"tensor": {"dtype": "DT_INT64", "tensorShape": {"dim": [{"size": "4"}]}}}, "dtype": {"type": "DT_INT64"}}}, {"name": "model_13/tf.nn.convolution_28/convolution/filter", "op": "Const", "attr": {"value": {"tensor": {"dtype": "DT_FLOAT", "tensorShape": {"dim": [{"size": "3"}, {"size": "3"}, {"size": "64"}, {"size": "64"}]}}}, "dtype": {"type": "DT_FLOAT"}}}, {"name": "model_13/tf.math.add_40/Add/y", "op": "Const", "attr": {"value": {"tensor": {"dtype": "DT_FLOAT", "tensorShape": {"dim": [{"size": "64"}]}}}, "dtype": {"type": "DT_FLOAT"}}}, {"name": "model_13/tf.nn.convolution_29/convolution/filter", "op": "Const", "attr": {"value": {"tensor": {"dtype": "DT_FLOAT", "tensorShape": {"dim": [{"size": "3"}, {"size": "3"}, {"size": "64"}, {"size": "64"}]}}}, "dtype": {"type": "DT_FLOAT"}}}, {"name": "model_13/tf.math.add_41/Add/y", "op": "Const", "attr": {"value": {"tensor": {"dtype": "DT_FLOAT", "tensorShape": {"dim": [{"size": "64"}]}}}, "dtype": {"type": "DT_FLOAT"}}}, {"name": "model_13/tf.concat_6/concat/axis", "op": "Const", "attr": {"value": {"tensor": {"dtype": "DT_INT32", "tensorShape": {}}}, "dtype": {"type": "DT_INT32"}}}, {"name": "model_13/tf.nn.convolution_30/convolution/filter", "op": "Const", "attr": {"value": {"tensor": {"dtype": "DT_FLOAT", "tensorShape": {"dim": [{"size": "1"}, {"size": "1"}, {"size": "192"}, {"size": "128"}]}}}, "dtype": {"type": "DT_FLOAT"}}}, {"name": "model_13/tf.math.add_42/Add/y", "op": "Const", "attr": {"value": {"tensor": {"dtype": "DT_FLOAT", "tensorShape": {"dim": [{"size": "128"}]}}}, "dtype": {"type": "DT_FLOAT"}}}, {"name": "model_13/tf.concat_9/concat/axis", "op": "Const", "attr": {"value": {"tensor": {"dtype": "DT_INT32", "tensorShape": {}}}, "dtype": {"type": "DT_INT32"}}}, {"name": "model_13/tf.nn.convolution_40/convolution/filter", "op": "Const", "attr": {"value": {"tensor": {"dtype": "DT_FLOAT", "tensorShape": {"dim": [{"size": "1"}, {"size": "1"}, {"size": "192"}, {"size": "128"}]}}}, "dtype": {"type": "DT_FLOAT"}}}, {"name": "model_13/tf.math.add_52/Add/y", "op": "Const", "attr": {"value": {"tensor": {"dtype": "DT_FLOAT", "tensorShape": {"dim": [{"size": "128"}]}}}, "dtype": {"type": "DT_FLOAT"}}}, {"name": "model_13/tf.strided_slice_13/ones_like/tensor", "op": "Const", "attr": {"value": {"tensor": {"dtype": "DT_INT64", "tensorShape": {"dim": [{"size": "4"}]}}}, "dtype": {"type": "DT_INT64"}}}, {"name": "model_13/tf.strided_slice_13/StridedSlice/end", "op": "Const", "attr": {"value": {"tensor": {"dtype": "DT_INT64", "tensorShape": {"dim": [{"size": "4"}]}}}, "dtype": {"type": "DT_INT64"}}}, {"name": "model_13/tf.strided_slice_13/ones_like", "op": "Const", "attr": {"value": {"tensor": {"dtype": "DT_INT64", "tensorShape": {"dim": [{"size": "4"}]}}}, "dtype": {"type": "DT_INT64"}}}, {"name": "model_13/tf.nn.convolution_43/convolution/filter", "op": "Const", "attr": {"value": {"tensor": {"dtype": "DT_FLOAT", "tensorShape": {"dim": [{"size": "3"}, {"size": "3"}, {"size": "64"}, {"size": "64"}]}}}, "dtype": {"type": "DT_FLOAT"}}}, {"name": "model_13/tf.math.add_55/Add/y", "op": "Const", "attr": {"value": {"tensor": {"dtype": "DT_FLOAT", "tensorShape": {"dim": [{"size": "64"}]}}}, "dtype": {"type": "DT_FLOAT"}}}, {"name": "model_13/tf.nn.convolution_44/convolution/filter", "op": "Const", "attr": {"value": {"tensor": {"dtype": "DT_FLOAT", "tensorShape": {"dim": [{"size": "3"}, {"size": "3"}, {"size": "64"}, {"size": "64"}]}}}, "dtype": {"type": "DT_FLOAT"}}}, {"name": "model_13/tf.math.add_56/Add/y", "op": "Const", "attr": {"value": {"tensor": {"dtype": "DT_FLOAT", "tensorShape": {"dim": [{"size": "64"}]}}}, "dtype": {"type": "DT_FLOAT"}}}, {"name": "model_13/tf.concat_11/concat/axis", "op": "Const", "attr": {"value": {"tensor": {"dtype": "DT_INT32", "tensorShape": {}}}, "dtype": {"type": "DT_INT32"}}}, {"name": "model_13/tf.nn.convolution_45/convolution/filter", "op": "Const", "attr": {"value": {"tensor": {"dtype": "DT_FLOAT", "tensorShape": {"dim": [{"size": "1"}, {"size": "1"}, {"size": "192"}, {"size": "128"}]}}}, "dtype": {"type": "DT_FLOAT"}}}, {"name": "model_13/tf.math.add_57/Add/y", "op": "Const", "attr": {"value": {"tensor": {"dtype": "DT_FLOAT", "tensorShape": {"dim": [{"size": "128"}]}}}, "dtype": {"type": "DT_FLOAT"}}}, {"name": "model_13/tf.compat.v1.pad_6/Pad/paddings", "op": "Const", "attr": {"value": {"tensor": {"dtype": "DT_INT32", "tensorShape": {"dim": [{"size": "4"}, {"size": "2"}]}}}, "dtype": {"type": "DT_INT32"}}}, {"name": "model_13/tf.nn.convolution_46/convolution/filter", "op": "Const", "attr": {"value": {"tensor": {"dtype": "DT_FLOAT", "tensorShape": {"dim": [{"size": "3"}, {"size": "3"}, {"size": "128"}, {"size": "128"}]}}}, "dtype": {"type": "DT_FLOAT"}}}, {"name": "model_13/tf.math.add_58/Add/y", "op": "Const", "attr": {"value": {"tensor": {"dtype": "DT_FLOAT", "tensorShape": {"dim": [{"size": "128"}]}}}, "dtype": {"type": "DT_FLOAT"}}}, {"name": "model_13/tf.strided_slice_6/ones_like/tensor", "op": "Const", "attr": {"value": {"tensor": {"dtype": "DT_INT64", "tensorShape": {"dim": [{"size": "4"}]}}}, "dtype": {"type": "DT_INT64"}}}, {"name": "model_13/tf.strided_slice_6/StridedSlice/end", "op": "Const", "attr": {"value": {"tensor": {"dtype": "DT_INT64", "tensorShape": {"dim": [{"size": "4"}]}}}, "dtype": {"type": "DT_INT64"}}}, {"name": "model_13/tf.strided_slice_6/ones_like", "op": "Const", "attr": {"value": {"tensor": {"dtype": "DT_INT64", "tensorShape": {"dim": [{"size": "4"}]}}}, "dtype": {"type": "DT_INT64"}}}, {"name": "model_13/tf.strided_slice_4/ones_like/tensor", "op": "Const", "attr": {"value": {"tensor": {"dtype": "DT_INT64", "tensorShape": {"dim": [{"size": "4"}]}}}, "dtype": {"type": "DT_INT64"}}}, {"name": "model_13/tf.strided_slice_4/StridedSlice/end", "op": "Const", "attr": {"value": {"tensor": {"dtype": "DT_INT64", "tensorShape": {"dim": [{"size": "4"}]}}}, "dtype": {"type": "DT_INT64"}}}, {"name": "model_13/tf.strided_slice_4/ones_like", "op": "Const", "attr": {"value": {"tensor": {"dtype": "DT_INT64", "tensorShape": {"dim": [{"size": "4"}]}}}, "dtype": {"type": "DT_INT64"}}}, {"name": "model_13/tf.strided_slice_2/ones_like/tensor", "op": "Const", "attr": {"value": {"tensor": {"dtype": "DT_INT64", "tensorShape": {"dim": [{"size": "4"}]}}}, "dtype": {"type": "DT_INT64"}}}, {"name": "model_13/tf.strided_slice_2/StridedSlice/end", "op": "Const", "attr": {"value": {"tensor": {"dtype": "DT_INT64", "tensorShape": {"dim": [{"size": "4"}]}}}, "dtype": {"type": "DT_INT64"}}}, {"name": "model_13/tf.strided_slice_2/ones_like", "op": "Const", "attr": {"value": {"tensor": {"dtype": "DT_INT64", "tensorShape": {"dim": [{"size": "4"}]}}}, "dtype": {"type": "DT_INT64"}}}, {"name": "model_13/tf.strided_slice/ones_like/tensor", "op": "Const", "attr": {"value": {"tensor": {"dtype": "DT_INT64", "tensorShape": {"dim": [{"size": "4"}]}}}, "dtype": {"type": "DT_INT64"}}}, {"name": "model_13/tf.strided_slice/StridedSlice/end", "op": "Const", "attr": {"value": {"tensor": {"dtype": "DT_INT64", "tensorShape": {"dim": [{"size": "4"}]}}}, "dtype": {"type": "DT_INT64"}}}, {"name": "model_13/tf.strided_slice/ones_like", "op": "Const", "attr": {"value": {"tensor": {"dtype": "DT_INT64", "tensorShape": {"dim": [{"size": "4"}]}}}, "dtype": {"type": "DT_INT64"}}}, {"name": "model_13/tf.compat.v1.pad/Pad/paddings", "op": "Const", "attr": {"value": {"tensor": {"dtype": "DT_INT32", "tensorShape": {"dim": [{"size": "4"}, {"size": "2"}]}}}, "dtype": {"type": "DT_INT32"}}}, {"name": "model_13/tf.nn.convolution/convolution/filter", "op": "Const", "attr": {"value": {"tensor": {"dtype": "DT_FLOAT", "tensorShape": {"dim": [{"size": "3"}, {"size": "3"}, {"size": "3"}, {"size": "16"}]}}}, "dtype": {"type": "DT_FLOAT"}}}, {"name": "model_13/tf.math.add/Add/y", "op": "Const", "attr": {"value": {"tensor": {"dtype": "DT_FLOAT", "tensorShape": {"dim": [{"size": "16"}]}}}, "dtype": {"type": "DT_FLOAT"}}}, {"name": "model_13/tf.compat.v1.pad_1/Pad/paddings", "op": "Const", "attr": {"value": {"tensor": {"dtype": "DT_INT32", "tensorShape": {"dim": [{"size": "4"}, {"size": "2"}]}}}, "dtype": {"type": "DT_INT32"}}}, {"name": "model_13/tf.nn.convolution_1/convolution/filter", "op": "Const", "attr": {"value": {"tensor": {"dtype": "DT_FLOAT", "tensorShape": {"dim": [{"size": "3"}, {"size": "3"}, {"size": "16"}, {"size": "32"}]}}}, "dtype": {"type": "DT_FLOAT"}}}, {"name": "model_13/tf.math.add_1/Add/y", "op": "Const", "attr": {"value": {"tensor": {"dtype": "DT_FLOAT", "tensorShape": {"dim": [{"size": "32"}]}}}, "dtype": {"type": "DT_FLOAT"}}}, {"name": "model_13/tf.nn.convolution_2/convolution/filter", "op": "Const", "attr": {"value": {"tensor": {"dtype": "DT_FLOAT", "tensorShape": {"dim": [{"size": "1"}, {"size": "1"}, {"size": "32"}, {"size": "32"}]}}}, "dtype": {"type": "DT_FLOAT"}}}, {"name": "model_13/tf.math.add_2/Add/y", "op": "Const", "attr": {"value": {"tensor": {"dtype": "DT_FLOAT", "tensorShape": {"dim": [{"size": "32"}]}}}, "dtype": {"type": "DT_FLOAT"}}}, {"name": "model_13/tf.strided_slice_1/ones_like/tensor", "op": "Const", "attr": {"value": {"tensor": {"dtype": "DT_INT64", "tensorShape": {"dim": [{"size": "4"}]}}}, "dtype": {"type": "DT_INT64"}}}, {"name": "model_13/tf.strided_slice_1/StridedSlice/end", "op": "Const", "attr": {"value": {"tensor": {"dtype": "DT_INT64", "tensorShape": {"dim": [{"size": "4"}]}}}, "dtype": {"type": "DT_INT64"}}}, {"name": "model_13/tf.strided_slice_1/ones_like", "op": "Const", "attr": {"value": {"tensor": {"dtype": "DT_INT64", "tensorShape": {"dim": [{"size": "4"}]}}}, "dtype": {"type": "DT_INT64"}}}, {"name": "model_13/tf.nn.convolution_3/convolution/filter", "op": "Const", "attr": {"value": {"tensor": {"dtype": "DT_FLOAT", "tensorShape": {"dim": [{"size": "3"}, {"size": "3"}, {"size": "16"}, {"size": "16"}]}}}, "dtype": {"type": "DT_FLOAT"}}}, {"name": "model_13/tf.math.add_3/Add/y", "op": "Const", "attr": {"value": {"tensor": {"dtype": "DT_FLOAT", "tensorShape": {"dim": [{"size": "16"}]}}}, "dtype": {"type": "DT_FLOAT"}}}, {"name": "model_13/tf.nn.convolution_4/convolution/filter", "op": "Const", "attr": {"value": {"tensor": {"dtype": "DT_FLOAT", "tensorShape": {"dim": [{"size": "3"}, {"size": "3"}, {"size": "16"}, {"size": "16"}]}}}, "dtype": {"type": "DT_FLOAT"}}}, {"name": "model_13/tf.math.add_4/Add/y", "op": "Const", "attr": {"value": {"tensor": {"dtype": "DT_FLOAT", "tensorShape": {"dim": [{"size": "16"}]}}}, "dtype": {"type": "DT_FLOAT"}}}, {"name": "model_13/tf.concat/concat/axis", "op": "Const", "attr": {"value": {"tensor": {"dtype": "DT_INT32", "tensorShape": {}}}, "dtype": {"type": "DT_INT32"}}}, {"name": "model_13/tf.nn.convolution_5/convolution/filter", "op": "Const", "attr": {"value": {"tensor": {"dtype": "DT_FLOAT", "tensorShape": {"dim": [{"size": "1"}, {"size": "1"}, {"size": "48"}, {"size": "32"}]}}}, "dtype": {"type": "DT_FLOAT"}}}, {"name": "model_13/tf.math.add_7/Add/y", "op": "Const", "attr": {"value": {"tensor": {"dtype": "DT_FLOAT", "tensorShape": {"dim": [{"size": "32"}]}}}, "dtype": {"type": "DT_FLOAT"}}}, {"name": "model_13/tf.compat.v1.pad_2/Pad/paddings", "op": "Const", "attr": {"value": {"tensor": {"dtype": "DT_INT32", "tensorShape": {"dim": [{"size": "4"}, {"size": "2"}]}}}, "dtype": {"type": "DT_INT32"}}}, {"name": "model_13/tf.nn.convolution_6/convolution/filter", "op": "Const", "attr": {"value": {"tensor": {"dtype": "DT_FLOAT", "tensorShape": {"dim": [{"size": "3"}, {"size": "3"}, {"size": "32"}, {"size": "64"}]}}}, "dtype": {"type": "DT_FLOAT"}}}, {"name": "model_13/tf.math.add_8/Add/y", "op": "Const", "attr": {"value": {"tensor": {"dtype": "DT_FLOAT", "tensorShape": {"dim": [{"size": "64"}]}}}, "dtype": {"type": "DT_FLOAT"}}}, {"name": "model_13/tf.nn.convolution_7/convolution/filter", "op": "Const", "attr": {"value": {"tensor": {"dtype": "DT_FLOAT", "tensorShape": {"dim": [{"size": "1"}, {"size": "1"}, {"size": "64"}, {"size": "64"}]}}}, "dtype": {"type": "DT_FLOAT"}}}, {"name": "model_13/tf.math.add_9/Add/y", "op": "Const", "attr": {"value": {"tensor": {"dtype": "DT_FLOAT", "tensorShape": {"dim": [{"size": "64"}]}}}, "dtype": {"type": "DT_FLOAT"}}}, {"name": "model_13/tf.strided_slice_3/ones_like/tensor", "op": "Const", "attr": {"value": {"tensor": {"dtype": "DT_INT64", "tensorShape": {"dim": [{"size": "4"}]}}}, "dtype": {"type": "DT_INT64"}}}, {"name": "model_13/tf.strided_slice_3/StridedSlice/end", "op": "Const", "attr": {"value": {"tensor": {"dtype": "DT_INT64", "tensorShape": {"dim": [{"size": "4"}]}}}, "dtype": {"type": "DT_INT64"}}}, {"name": "model_13/tf.strided_slice_3/ones_like", "op": "Const", "attr": {"value": {"tensor": {"dtype": "DT_INT64", "tensorShape": {"dim": [{"size": "4"}]}}}, "dtype": {"type": "DT_INT64"}}}, {"name": "model_13/tf.nn.convolution_8/convolution/filter", "op": "Const", "attr": {"value": {"tensor": {"dtype": "DT_FLOAT", "tensorShape": {"dim": [{"size": "3"}, {"size": "3"}, {"size": "32"}, {"size": "32"}]}}}, "dtype": {"type": "DT_FLOAT"}}}, {"name": "model_13/tf.math.add_10/Add/y", "op": "Const", "attr": {"value": {"tensor": {"dtype": "DT_FLOAT", "tensorShape": {"dim": [{"size": "32"}]}}}, "dtype": {"type": "DT_FLOAT"}}}, {"name": "model_13/tf.nn.convolution_9/convolution/filter", "op": "Const", "attr": {"value": {"tensor": {"dtype": "DT_FLOAT", "tensorShape": {"dim": [{"size": "3"}, {"size": "3"}, {"size": "32"}, {"size": "32"}]}}}, "dtype": {"type": "DT_FLOAT"}}}, {"name": "model_13/tf.math.add_11/Add/y", "op": "Const", "attr": {"value": {"tensor": {"dtype": "DT_FLOAT", "tensorShape": {"dim": [{"size": "32"}]}}}, "dtype": {"type": "DT_FLOAT"}}}, {"name": "model_13/tf.nn.convolution_10/convolution/filter", "op": "Const", "attr": {"value": {"tensor": {"dtype": "DT_FLOAT", "tensorShape": {"dim": [{"size": "3"}, {"size": "3"}, {"size": "32"}, {"size": "32"}]}}}, "dtype": {"type": "DT_FLOAT"}}}, {"name": "model_13/tf.math.add_14/Add/y", "op": "Const", "attr": {"value": {"tensor": {"dtype": "DT_FLOAT", "tensorShape": {"dim": [{"size": "32"}]}}}, "dtype": {"type": "DT_FLOAT"}}}, {"name": "model_13/tf.nn.convolution_11/convolution/filter", "op": "Const", "attr": {"value": {"tensor": {"dtype": "DT_FLOAT", "tensorShape": {"dim": [{"size": "3"}, {"size": "3"}, {"size": "32"}, {"size": "32"}]}}}, "dtype": {"type": "DT_FLOAT"}}}, {"name": "model_13/tf.math.add_15/Add/y", "op": "Const", "attr": {"value": {"tensor": {"dtype": "DT_FLOAT", "tensorShape": {"dim": [{"size": "32"}]}}}, "dtype": {"type": "DT_FLOAT"}}}, {"name": "model_13/tf.concat_1/concat/axis", "op": "Const", "attr": {"value": {"tensor": {"dtype": "DT_INT32", "tensorShape": {}}}, "dtype": {"type": "DT_INT32"}}}, {"name": "model_13/tf.nn.convolution_12/convolution/filter", "op": "Const", "attr": {"value": {"tensor": {"dtype": "DT_FLOAT", "tensorShape": {"dim": [{"size": "1"}, {"size": "1"}, {"size": "128"}, {"size": "64"}]}}}, "dtype": {"type": "DT_FLOAT"}}}, {"name": "model_13/tf.math.add_18/Add/y", "op": "Const", "attr": {"value": {"tensor": {"dtype": "DT_FLOAT", "tensorShape": {"dim": [{"size": "64"}]}}}, "dtype": {"type": "DT_FLOAT"}}}, {"name": "model_13/tf.compat.v1.pad_3/Pad/paddings", "op": "Const", "attr": {"value": {"tensor": {"dtype": "DT_INT32", "tensorShape": {"dim": [{"size": "4"}, {"size": "2"}]}}}, "dtype": {"type": "DT_INT32"}}}, {"name": "model_13/tf.nn.convolution_13/convolution/filter", "op": "Const", "attr": {"value": {"tensor": {"dtype": "DT_FLOAT", "tensorShape": {"dim": [{"size": "3"}, {"size": "3"}, {"size": "64"}, {"size": "128"}]}}}, "dtype": {"type": "DT_FLOAT"}}}, {"name": "model_13/tf.math.add_19/Add/y", "op": "Const", "attr": {"value": {"tensor": {"dtype": "DT_FLOAT", "tensorShape": {"dim": [{"size": "128"}]}}}, "dtype": {"type": "DT_FLOAT"}}}, {"name": "model_13/tf.nn.convolution_14/convolution/filter", "op": "Const", "attr": {"value": {"tensor": {"dtype": "DT_FLOAT", "tensorShape": {"dim": [{"size": "1"}, {"size": "1"}, {"size": "128"}, {"size": "128"}]}}}, "dtype": {"type": "DT_FLOAT"}}}, {"name": "model_13/tf.math.add_20/Add/y", "op": "Const", "attr": {"value": {"tensor": {"dtype": "DT_FLOAT", "tensorShape": {"dim": [{"size": "128"}]}}}, "dtype": {"type": "DT_FLOAT"}}}, {"name": "model_13/tf.strided_slice_5/ones_like/tensor", "op": "Const", "attr": {"value": {"tensor": {"dtype": "DT_INT64", "tensorShape": {"dim": [{"size": "4"}]}}}, "dtype": {"type": "DT_INT64"}}}, {"name": "model_13/tf.strided_slice_5/StridedSlice/end", "op": "Const", "attr": {"value": {"tensor": {"dtype": "DT_INT64", "tensorShape": {"dim": [{"size": "4"}]}}}, "dtype": {"type": "DT_INT64"}}}, {"name": "model_13/tf.strided_slice_5/ones_like", "op": "Const", "attr": {"value": {"tensor": {"dtype": "DT_INT64", "tensorShape": {"dim": [{"size": "4"}]}}}, "dtype": {"type": "DT_INT64"}}}, {"name": "model_13/tf.nn.convolution_15/convolution/filter", "op": "Const", "attr": {"value": {"tensor": {"dtype": "DT_FLOAT", "tensorShape": {"dim": [{"size": "3"}, {"size": "3"}, {"size": "64"}, {"size": "64"}]}}}, "dtype": {"type": "DT_FLOAT"}}}, {"name": "model_13/tf.math.add_21/Add/y", "op": "Const", "attr": {"value": {"tensor": {"dtype": "DT_FLOAT", "tensorShape": {"dim": [{"size": "64"}]}}}, "dtype": {"type": "DT_FLOAT"}}}, {"name": "model_13/tf.nn.convolution_16/convolution/filter", "op": "Const", "attr": {"value": {"tensor": {"dtype": "DT_FLOAT", "tensorShape": {"dim": [{"size": "3"}, {"size": "3"}, {"size": "64"}, {"size": "64"}]}}}, "dtype": {"type": "DT_FLOAT"}}}, {"name": "model_13/tf.math.add_22/Add/y", "op": "Const", "attr": {"value": {"tensor": {"dtype": "DT_FLOAT", "tensorShape": {"dim": [{"size": "64"}]}}}, "dtype": {"type": "DT_FLOAT"}}}, {"name": "model_13/tf.nn.convolution_17/convolution/filter", "op": "Const", "attr": {"value": {"tensor": {"dtype": "DT_FLOAT", "tensorShape": {"dim": [{"size": "3"}, {"size": "3"}, {"size": "64"}, {"size": "64"}]}}}, "dtype": {"type": "DT_FLOAT"}}}, {"name": "model_13/tf.math.add_25/Add/y", "op": "Const", "attr": {"value": {"tensor": {"dtype": "DT_FLOAT", "tensorShape": {"dim": [{"size": "64"}]}}}, "dtype": {"type": "DT_FLOAT"}}}, {"name": "model_13/tf.nn.convolution_18/convolution/filter", "op": "Const", "attr": {"value": {"tensor": {"dtype": "DT_FLOAT", "tensorShape": {"dim": [{"size": "3"}, {"size": "3"}, {"size": "64"}, {"size": "64"}]}}}, "dtype": {"type": "DT_FLOAT"}}}, {"name": "model_13/tf.math.add_26/Add/y", "op": "Const", "attr": {"value": {"tensor": {"dtype": "DT_FLOAT", "tensorShape": {"dim": [{"size": "64"}]}}}, "dtype": {"type": "DT_FLOAT"}}}, {"name": "model_13/tf.concat_2/concat/axis", "op": "Const", "attr": {"value": {"tensor": {"dtype": "DT_INT32", "tensorShape": {}}}, "dtype": {"type": "DT_INT32"}}}, {"name": "model_13/tf.nn.convolution_19/convolution/filter", "op": "Const", "attr": {"value": {"tensor": {"dtype": "DT_FLOAT", "tensorShape": {"dim": [{"size": "1"}, {"size": "1"}, {"size": "256"}, {"size": "128"}]}}}, "dtype": {"type": "DT_FLOAT"}}}, {"name": "model_13/tf.math.add_29/Add/y", "op": "Const", "attr": {"value": {"tensor": {"dtype": "DT_FLOAT", "tensorShape": {"dim": [{"size": "128"}]}}}, "dtype": {"type": "DT_FLOAT"}}}, {"name": "model_13/tf.compat.v1.pad_4/Pad/paddings", "op": "Const", "attr": {"value": {"tensor": {"dtype": "DT_INT32", "tensorShape": {"dim": [{"size": "4"}, {"size": "2"}]}}}, "dtype": {"type": "DT_INT32"}}}, {"name": "model_13/tf.nn.convolution_20/convolution/filter", "op": "Const", "attr": {"value": {"tensor": {"dtype": "DT_FLOAT", "tensorShape": {"dim": [{"size": "3"}, {"size": "3"}, {"size": "128"}, {"size": "256"}]}}}, "dtype": {"type": "DT_FLOAT"}}}, {"name": "model_13/tf.math.add_30/Add/y", "op": "Const", "attr": {"value": {"tensor": {"dtype": "DT_FLOAT", "tensorShape": {"dim": [{"size": "256"}]}}}, "dtype": {"type": "DT_FLOAT"}}}, {"name": "model_13/tf.nn.convolution_21/convolution/filter", "op": "Const", "attr": {"value": {"tensor": {"dtype": "DT_FLOAT", "tensorShape": {"dim": [{"size": "1"}, {"size": "1"}, {"size": "256"}, {"size": "256"}]}}}, "dtype": {"type": "DT_FLOAT"}}}, {"name": "model_13/tf.math.add_31/Add/y", "op": "Const", "attr": {"value": {"tensor": {"dtype": "DT_FLOAT", "tensorShape": {"dim": [{"size": "256"}]}}}, "dtype": {"type": "DT_FLOAT"}}}, {"name": "model_13/tf.strided_slice_7/ones_like/tensor", "op": "Const", "attr": {"value": {"tensor": {"dtype": "DT_INT64", "tensorShape": {"dim": [{"size": "4"}]}}}, "dtype": {"type": "DT_INT64"}}}, {"name": "model_13/tf.strided_slice_7/StridedSlice/end", "op": "Const", "attr": {"value": {"tensor": {"dtype": "DT_INT64", "tensorShape": {"dim": [{"size": "4"}]}}}, "dtype": {"type": "DT_INT64"}}}, {"name": "model_13/tf.strided_slice_7/ones_like", "op": "Const", "attr": {"value": {"tensor": {"dtype": "DT_INT64", "tensorShape": {"dim": [{"size": "4"}]}}}, "dtype": {"type": "DT_INT64"}}}, {"name": "model_13/tf.nn.convolution_22/convolution/filter", "op": "Const", "attr": {"value": {"tensor": {"dtype": "DT_FLOAT", "tensorShape": {"dim": [{"size": "3"}, {"size": "3"}, {"size": "128"}, {"size": "128"}]}}}, "dtype": {"type": "DT_FLOAT"}}}, {"name": "model_13/tf.math.add_32/Add/y", "op": "Const", "attr": {"value": {"tensor": {"dtype": "DT_FLOAT", "tensorShape": {"dim": [{"size": "128"}]}}}, "dtype": {"type": "DT_FLOAT"}}}, {"name": "model_13/tf.nn.convolution_23/convolution/filter", "op": "Const", "attr": {"value": {"tensor": {"dtype": "DT_FLOAT", "tensorShape": {"dim": [{"size": "3"}, {"size": "3"}, {"size": "128"}, {"size": "128"}]}}}, "dtype": {"type": "DT_FLOAT"}}}, {"name": "model_13/tf.math.add_33/Add/y", "op": "Const", "attr": {"value": {"tensor": {"dtype": "DT_FLOAT", "tensorShape": {"dim": [{"size": "128"}]}}}, "dtype": {"type": "DT_FLOAT"}}}, {"name": "model_13/tf.concat_3/concat/axis", "op": "Const", "attr": {"value": {"tensor": {"dtype": "DT_INT32", "tensorShape": {}}}, "dtype": {"type": "DT_INT32"}}}, {"name": "model_13/tf.nn.convolution_24/convolution/filter", "op": "Const", "attr": {"value": {"tensor": {"dtype": "DT_FLOAT", "tensorShape": {"dim": [{"size": "1"}, {"size": "1"}, {"size": "384"}, {"size": "256"}]}}}, "dtype": {"type": "DT_FLOAT"}}}, {"name": "model_13/tf.math.add_36/Add/y", "op": "Const", "attr": {"value": {"tensor": {"dtype": "DT_FLOAT", "tensorShape": {"dim": [{"size": "256"}]}}}, "dtype": {"type": "DT_FLOAT"}}}, {"name": "model_13/tf.nn.convolution_25/convolution/filter", "op": "Const", "attr": {"value": {"tensor": {"dtype": "DT_FLOAT", "tensorShape": {"dim": [{"size": "1"}, {"size": "1"}, {"size": "256"}, {"size": "128"}]}}}, "dtype": {"type": "DT_FLOAT"}}}, {"name": "model_13/tf.math.add_37/Add/y", "op": "Const", "attr": {"value": {"tensor": {"dtype": "DT_FLOAT", "tensorShape": {"dim": [{"size": "128"}]}}}, "dtype": {"type": "DT_FLOAT"}}}, {"name": "model_13/tf.concat_4/concat/axis", "op": "Const", "attr": {"value": {"tensor": {"dtype": "DT_INT32", "tensorShape": {}}}, "dtype": {"type": "DT_INT32"}}}, {"name": "model_13/tf.nn.convolution_26/convolution/filter", "op": "Const", "attr": {"value": {"tensor": {"dtype": "DT_FLOAT", "tensorShape": {"dim": [{"size": "1"}, {"size": "1"}, {"size": "512"}, {"size": "256"}]}}}, "dtype": {"type": "DT_FLOAT"}}}, {"name": "model_13/tf.math.add_38/Add/y", "op": "Const", "attr": {"value": {"tensor": {"dtype": "DT_FLOAT", "tensorShape": {"dim": [{"size": "256"}]}}}, "dtype": {"type": "DT_FLOAT"}}}, {"name": "model_13/tf.concat_12/concat/axis", "op": "Const", "attr": {"value": {"tensor": {"dtype": "DT_INT32", "tensorShape": {}}}, "dtype": {"type": "DT_INT32"}}}, {"name": "model_13/tf.nn.convolution_51/convolution/filter", "op": "Const", "attr": {"value": {"tensor": {"dtype": "DT_FLOAT", "tensorShape": {"dim": [{"size": "1"}, {"size": "1"}, {"size": "384"}, {"size": "256"}]}}}, "dtype": {"type": "DT_FLOAT"}}}, {"name": "model_13/tf.math.add_63/Add/y", "op": "Const", "attr": {"value": {"tensor": {"dtype": "DT_FLOAT", "tensorShape": {"dim": [{"size": "256"}]}}}, "dtype": {"type": "DT_FLOAT"}}}, {"name": "model_13/tf.strided_slice_15/ones_like/tensor", "op": "Const", "attr": {"value": {"tensor": {"dtype": "DT_INT64", "tensorShape": {"dim": [{"size": "4"}]}}}, "dtype": {"type": "DT_INT64"}}}, {"name": "model_13/tf.strided_slice_15/StridedSlice/end", "op": "Const", "attr": {"value": {"tensor": {"dtype": "DT_INT64", "tensorShape": {"dim": [{"size": "4"}]}}}, "dtype": {"type": "DT_INT64"}}}, {"name": "model_13/tf.strided_slice_15/ones_like", "op": "Const", "attr": {"value": {"tensor": {"dtype": "DT_INT64", "tensorShape": {"dim": [{"size": "4"}]}}}, "dtype": {"type": "DT_INT64"}}}, {"name": "model_13/tf.nn.convolution_54/convolution/filter", "op": "Const", "attr": {"value": {"tensor": {"dtype": "DT_FLOAT", "tensorShape": {"dim": [{"size": "3"}, {"size": "3"}, {"size": "128"}, {"size": "128"}]}}}, "dtype": {"type": "DT_FLOAT"}}}, {"name": "model_13/tf.math.add_66/Add/y", "op": "Const", "attr": {"value": {"tensor": {"dtype": "DT_FLOAT", "tensorShape": {"dim": [{"size": "128"}]}}}, "dtype": {"type": "DT_FLOAT"}}}, {"name": "model_13/tf.nn.convolution_55/convolution/filter", "op": "Const", "attr": {"value": {"tensor": {"dtype": "DT_FLOAT", "tensorShape": {"dim": [{"size": "3"}, {"size": "3"}, {"size": "128"}, {"size": "128"}]}}}, "dtype": {"type": "DT_FLOAT"}}}, {"name": "model_13/tf.math.add_67/Add/y", "op": "Const", "attr": {"value": {"tensor": {"dtype": "DT_FLOAT", "tensorShape": {"dim": [{"size": "128"}]}}}, "dtype": {"type": "DT_FLOAT"}}}, {"name": "model_13/tf.concat_14/concat/axis", "op": "Const", "attr": {"value": {"tensor": {"dtype": "DT_INT32", "tensorShape": {}}}, "dtype": {"type": "DT_INT32"}}}, {"name": "model_13/tf.nn.convolution_56/convolution/filter", "op": "Const", "attr": {"value": {"tensor": {"dtype": "DT_FLOAT", "tensorShape": {"dim": [{"size": "1"}, {"size": "1"}, {"size": "384"}, {"size": "256"}]}}}, "dtype": {"type": "DT_FLOAT"}}}, {"name": "model_13/tf.math.add_68/Add/y", "op": "Const", "attr": {"value": {"tensor": {"dtype": "DT_FLOAT", "tensorShape": {"dim": [{"size": "256"}]}}}, "dtype": {"type": "DT_FLOAT"}}}, {"name": "model_13/tf.nn.convolution_58/convolution/filter", "op": "Const", "attr": {"value": {"tensor": {"dtype": "DT_FLOAT", "tensorShape": {"dim": [{"size": "3"}, {"size": "3"}, {"size": "256"}, {"size": "64"}]}}}, "dtype": {"type": "DT_FLOAT"}}}, {"name": "model_13/tf.math.add_70/Add/y", "op": "Const", "attr": {"value": {"tensor": {"dtype": "DT_FLOAT", "tensorShape": {"dim": [{"size": "64"}]}}}, "dtype": {"type": "DT_FLOAT"}}}, {"name": "model_13/tf.nn.convolution_60/convolution/filter", "op": "Const", "attr": {"value": {"tensor": {"dtype": "DT_FLOAT", "tensorShape": {"dim": [{"size": "3"}, {"size": "3"}, {"size": "64"}, {"size": "64"}]}}}, "dtype": {"type": "DT_FLOAT"}}}, {"name": "model_13/tf.math.add_72/Add/y", "op": "Const", "attr": {"value": {"tensor": {"dtype": "DT_FLOAT", "tensorShape": {"dim": [{"size": "64"}]}}}, "dtype": {"type": "DT_FLOAT"}}}, {"name": "model_13/tf.nn.convolution_62/convolution/filter", "op": "Const", "attr": {"value": {"tensor": {"dtype": "DT_FLOAT", "tensorShape": {"dim": [{"size": "1"}, {"size": "1"}, {"size": "64"}, {"size": "7"}]}}}, "dtype": {"type": "DT_FLOAT"}}}, {"name": "model_13/tf.math.add_74/Add/y", "op": "Const", "attr": {"value": {"tensor": {"dtype": "DT_FLOAT", "tensorShape": {"dim": [{"size": "7"}]}}}, "dtype": {"type": "DT_FLOAT"}}}, {"name": "model_13/tf.concat_15/concat/axis", "op": "Const", "attr": {"value": {"tensor": {"dtype": "DT_INT32", "tensorShape": {}}}, "dtype": {"type": "DT_INT32"}}}, {"name": "model_13/tf.compat.v1.transpose_75/transpose/perm", "op": "Const", "attr": {"value": {"tensor": {"dtype": "DT_INT32", "tensorShape": {"dim": [{"size": "4"}]}}}, "dtype": {"type": "DT_INT32"}}}, {"name": "model_13/tf.reshape_8/Reshape/shape", "op": "Const", "attr": {"value": {"tensor": {"dtype": "DT_INT32", "tensorShape": {"dim": [{"size": "3"}]}}}, "dtype": {"type": "DT_INT32"}}}, {"name": "model_13/tf.concat_16/concat/axis", "op": "Const", "attr": {"value": {"tensor": {"dtype": "DT_INT32", "tensorShape": {}}}, "dtype": {"type": "DT_INT32"}}}, {"name": "model_13/tf.strided_slice_17/StridedSlice/begin", "op": "Const", "attr": {"value": {"tensor": {"dtype": "DT_INT32", "tensorShape": {"dim": [{"size": "3"}]}}}, "dtype": {"type": "DT_INT32"}}}, {"name": "model_13/tf.strided_slice_17/StridedSlice/end", "op": "Const", "attr": {"value": {"tensor": {"dtype": "DT_INT32", "tensorShape": {"dim": [{"size": "3"}]}}}, "dtype": {"type": "DT_INT32"}}}, {"name": "model_13/tf.strided_slice_17/ones_like", "op": "Const", "attr": {"value": {"tensor": {"dtype": "DT_INT32", "tensorShape": {"dim": [{"size": "3"}]}}}, "dtype": {"type": "DT_INT32"}}}, {"name": "model_13/output0/concat/axis", "op": "Const", "attr": {"value": {"tensor": {"dtype": "DT_INT32", "tensorShape": {}}}, "dtype": {"type": "DT_INT32"}}}, {"name": "x", "op": "Placeholder", "attr": {"shape": {"shape": {"dim": [{"size": "1"}, {"size": "800"}, {"size": "800"}, {"size": "3"}]}}, "dtype": {"type": "DT_FLOAT"}}}, {"name": "model_13/tf.compat.v1.pad/Pad", "op": "Pad", "input": ["x", "model_13/tf.compat.v1.pad/Pad/paddings"], "attr": {"Tpaddings": {"type": "DT_INT32"}, "T": {"type": "DT_FLOAT"}}}, {"name": "model_13/tf.math.add/Add", "op": "_FusedConv2D", "input": ["model_13/tf.compat.v1.pad/Pad", "model_13/tf.nn.convolution/convolution/filter", "model_13/tf.math.add/Add/y"], "device": "/device:CPU:0", "attr": {"num_host_args": {"i": "0"}, "data_format": {"s": "TkhXQw=="}, "filter_format": {"s": "SFdJTw=="}, "strides": {"list": {"i": ["1", "2", "2", "1"]}}, "num_args": {"i": "1"}, "fused_ops": {"list": {"s": ["Qmlhc0FkZA=="]}}, "TArgs": {"list": {"type": ["DT_FLOAT"]}}, "padding": {"s": "VkFMSUQ="}, "use_cudnn_on_gpu": {"b": true}, "leakyrelu_alpha": {"f": 0.2}, "epsilon": {"f": 0.0}, "T": {"type": "DT_FLOAT"}, "explicit_paddings": {"list": {}}, "dilations": {"list": {"i": ["1", "1", "1", "1"]}}}}, {"name": "model_13/tf.math.sigmoid/Sigmoid", "op": "Sigmoid", "input": ["model_13/tf.math.add/Add"], "attr": {"T": {"type": "DT_FLOAT"}}}, {"name": "model_13/tf.math.multiply_3/Mul", "op": "Mul", "input": ["model_13/tf.math.add/Add", "model_13/tf.math.sigmoid/Sigmoid"], "attr": {"T": {"type": "DT_FLOAT"}}}, {"name": "model_13/tf.compat.v1.pad_1/Pad", "op": "Pad", "input": ["model_13/tf.math.multiply_3/Mul", "model_13/tf.compat.v1.pad_1/Pad/paddings"], "attr": {"Tpaddings": {"type": "DT_INT32"}, "T": {"type": "DT_FLOAT"}}}, {"name": "model_13/tf.math.add_1/Add", "op": "_FusedConv2D", "input": ["model_13/tf.compat.v1.pad_1/Pad", "model_13/tf.nn.convolution_1/convolution/filter", "model_13/tf.math.add_1/Add/y"], "device": "/device:CPU:0", "attr": {"num_host_args": {"i": "0"}, "data_format": {"s": "TkhXQw=="}, "filter_format": {"s": "SFdJTw=="}, "fused_ops": {"list": {"s": ["Qmlhc0FkZA=="]}}, "num_args": {"i": "1"}, "strides": {"list": {"i": ["1", "2", "2", "1"]}}, "TArgs": {"list": {"type": ["DT_FLOAT"]}}, "padding": {"s": "VkFMSUQ="}, "use_cudnn_on_gpu": {"b": true}, "leakyrelu_alpha": {"f": 0.2}, "epsilon": {"f": 0.0}, "T": {"type": "DT_FLOAT"}, "explicit_paddings": {"list": {}}, "dilations": {"list": {"i": ["1", "1", "1", "1"]}}}}, {"name": "model_13/tf.math.sigmoid_1/Sigmoid", "op": "Sigmoid", "input": ["model_13/tf.math.add_1/Add"], "attr": {"T": {"type": "DT_FLOAT"}}}, {"name": "model_13/tf.math.multiply_7/Mul", "op": "Mul", "input": ["model_13/tf.math.add_1/Add", "model_13/tf.math.sigmoid_1/Sigmoid"], "attr": {"T": {"type": "DT_FLOAT"}}}, {"name": "model_13/tf.math.add_2/Add", "op": "_FusedConv2D", "input": ["model_13/tf.math.multiply_7/Mul", "model_13/tf.nn.convolution_2/convolution/filter", "model_13/tf.math.add_2/Add/y"], "device": "/device:CPU:0", "attr": {"num_host_args": {"i": "0"}, "data_format": {"s": "TkhXQw=="}, "filter_format": {"s": "SFdJTw=="}, "strides": {"list": {"i": ["1", "1", "1", "1"]}}, "num_args": {"i": "1"}, "fused_ops": {"list": {"s": ["Qmlhc0FkZA=="]}}, "TArgs": {"list": {"type": ["DT_FLOAT"]}}, "padding": {"s": "U0FNRQ=="}, "use_cudnn_on_gpu": {"b": true}, "leakyrelu_alpha": {"f": 0.2}, "epsilon": {"f": 0.0}, "T": {"type": "DT_FLOAT"}, "explicit_paddings": {"list": {}}, "dilations": {"list": {"i": ["1", "1", "1", "1"]}}}}, {"name": "model_13/tf.math.sigmoid_2/Sigmoid", "op": "Sigmoid", "input": ["model_13/tf.math.add_2/Add"], "attr": {"T": {"type": "DT_FLOAT"}}}, {"name": "model_13/tf.math.multiply_11/Mul", "op": "Mul", "input": ["model_13/tf.math.add_2/Add", "model_13/tf.math.sigmoid_2/Sigmoid"], "attr": {"T": {"type": "DT_FLOAT"}}}, {"name": "model_13/tf.strided_slice/StridedSlice", "op": "StridedSlice", "input": ["model_13/tf.math.multiply_11/Mul", "model_13/tf.strided_slice/ones_like/tensor", "model_13/tf.strided_slice/StridedSlice/end", "model_13/tf.strided_slice/ones_like"], "attr": {"shrink_axis_mask": {"i": "0"}, "Index": {"type": "DT_INT64"}, "new_axis_mask": {"i": "0"}, "begin_mask": {"i": "15"}, "T": {"type": "DT_FLOAT"}, "end_mask": {"i": "7"}, "ellipsis_mask": {"i": "0"}}}, {"name": "model_13/tf.strided_slice_1/StridedSlice", "op": "StridedSlice", "input": ["model_13/tf.math.multiply_11/Mul", "model_13/tf.strided_slice_1/ones_like/tensor", "model_13/tf.strided_slice_1/StridedSlice/end", "model_13/tf.strided_slice_1/ones_like"], "attr": {"shrink_axis_mask": {"i": "0"}, "Index": {"type": "DT_INT64"}, "new_axis_mask": {"i": "0"}, "begin_mask": {"i": "7"}, "T": {"type": "DT_FLOAT"}, "end_mask": {"i": "7"}, "ellipsis_mask": {"i": "0"}}}, {"name": "model_13/tf.math.add_3/Add", "op": "_FusedConv2D", "input": ["model_13/tf.strided_slice_1/StridedSlice", "model_13/tf.nn.convolution_3/convolution/filter", "model_13/tf.math.add_3/Add/y"], "device": "/device:CPU:0", "attr": {"num_host_args": {"i": "0"}, "data_format": {"s": "TkhXQw=="}, "filter_format": {"s": "SFdJTw=="}, "fused_ops": {"list": {"s": ["Qmlhc0FkZA=="]}}, "num_args": {"i": "1"}, "strides": {"list": {"i": ["1", "1", "1", "1"]}}, "TArgs": {"list": {"type": ["DT_FLOAT"]}}, "padding": {"s": "U0FNRQ=="}, "use_cudnn_on_gpu": {"b": true}, "leakyrelu_alpha": {"f": 0.2}, "epsilon": {"f": 0.0}, "T": {"type": "DT_FLOAT"}, "explicit_paddings": {"list": {}}, "dilations": {"list": {"i": ["1", "1", "1", "1"]}}}}, {"name": "model_13/tf.math.sigmoid_3/Sigmoid", "op": "Sigmoid", "input": ["model_13/tf.math.add_3/Add"], "attr": {"T": {"type": "DT_FLOAT"}}}, {"name": "model_13/tf.math.multiply_15/Mul", "op": "Mul", "input": ["model_13/tf.math.add_3/Add", "model_13/tf.math.sigmoid_3/Sigmoid"], "attr": {"T": {"type": "DT_FLOAT"}}}, {"name": "model_13/tf.math.add_4/Add", "op": "_FusedConv2D", "input": ["model_13/tf.math.multiply_15/Mul", "model_13/tf.nn.convolution_4/convolution/filter", "model_13/tf.math.add_4/Add/y"], "device": "/device:CPU:0", "attr": {"num_host_args": {"i": "0"}, "data_format": {"s": "TkhXQw=="}, "filter_format": {"s": "SFdJTw=="}, "fused_ops": {"list": {"s": ["Qmlhc0FkZA=="]}}, "num_args": {"i": "1"}, "strides": {"list": {"i": ["1", "1", "1", "1"]}}, "TArgs": {"list": {"type": ["DT_FLOAT"]}}, "padding": {"s": "U0FNRQ=="}, "use_cudnn_on_gpu": {"b": true}, "leakyrelu_alpha": {"f": 0.2}, "epsilon": {"f": 0.0}, "T": {"type": "DT_FLOAT"}, "explicit_paddings": {"list": {}}, "dilations": {"list": {"i": ["1", "1", "1", "1"]}}}}, {"name": "model_13/tf.math.sigmoid_4/Sigmoid", "op": "Sigmoid", "input": ["model_13/tf.math.add_4/Add"], "attr": {"T": {"type": "DT_FLOAT"}}}, {"name": "model_13/tf.math.multiply_19/Mul", "op": "Mul", "input": ["model_13/tf.math.add_4/Add", "model_13/tf.math.sigmoid_4/Sigmoid"], "attr": {"T": {"type": "DT_FLOAT"}}}, {"name": "model_13/tf.math.add_6/Add", "op": "AddV2", "input": ["model_13/tf.strided_slice_1/StridedSlice", "model_13/tf.math.multiply_19/Mul"], "attr": {"T": {"type": "DT_FLOAT"}}}, {"name": "model_13/tf.concat/concat", "op": "ConcatV2", "input": ["model_13/tf.strided_slice/StridedSlice", "model_13/tf.strided_slice_1/StridedSlice", "model_13/tf.math.add_6/Add", "model_13/tf.concat/concat/axis"], "attr": {"N": {"i": "3"}, "T": {"type": "DT_FLOAT"}, "Tidx": {"type": "DT_INT32"}}}, {"name": "model_13/tf.math.add_7/Add", "op": "_FusedConv2D", "input": ["model_13/tf.concat/concat", "model_13/tf.nn.convolution_5/convolution/filter", "model_13/tf.math.add_7/Add/y"], "device": "/device:CPU:0", "attr": {"num_host_args": {"i": "0"}, "data_format": {"s": "TkhXQw=="}, "filter_format": {"s": "SFdJTw=="}, "strides": {"list": {"i": ["1", "1", "1", "1"]}}, "num_args": {"i": "1"}, "fused_ops": {"list": {"s": ["Qmlhc0FkZA=="]}}, "TArgs": {"list": {"type": ["DT_FLOAT"]}}, "padding": {"s": "U0FNRQ=="}, "use_cudnn_on_gpu": {"b": true}, "leakyrelu_alpha": {"f": 0.2}, "epsilon": {"f": 0.0}, "T": {"type": "DT_FLOAT"}, "explicit_paddings": {"list": {}}, "dilations": {"list": {"i": ["1", "1", "1", "1"]}}}}, {"name": "model_13/tf.math.sigmoid_5/Sigmoid", "op": "Sigmoid", "input": ["model_13/tf.math.add_7/Add"], "attr": {"T": {"type": "DT_FLOAT"}}}, {"name": "model_13/tf.math.multiply_25/Mul", "op": "Mul", "input": ["model_13/tf.math.add_7/Add", "model_13/tf.math.sigmoid_5/Sigmoid"], "attr": {"T": {"type": "DT_FLOAT"}}}, {"name": "model_13/tf.compat.v1.pad_2/Pad", "op": "Pad", "input": ["model_13/tf.math.multiply_25/Mul", "model_13/tf.compat.v1.pad_2/Pad/paddings"], "attr": {"Tpaddings": {"type": "DT_INT32"}, "T": {"type": "DT_FLOAT"}}}, {"name": "model_13/tf.math.add_8/Add", "op": "_FusedConv2D", "input": ["model_13/tf.compat.v1.pad_2/Pad", "model_13/tf.nn.convolution_6/convolution/filter", "model_13/tf.math.add_8/Add/y"], "device": "/device:CPU:0", "attr": {"num_host_args": {"i": "0"}, "data_format": {"s": "TkhXQw=="}, "filter_format": {"s": "SFdJTw=="}, "fused_ops": {"list": {"s": ["Qmlhc0FkZA=="]}}, "num_args": {"i": "1"}, "strides": {"list": {"i": ["1", "2", "2", "1"]}}, "TArgs": {"list": {"type": ["DT_FLOAT"]}}, "padding": {"s": "VkFMSUQ="}, "use_cudnn_on_gpu": {"b": true}, "leakyrelu_alpha": {"f": 0.2}, "epsilon": {"f": 0.0}, "T": {"type": "DT_FLOAT"}, "explicit_paddings": {"list": {}}, "dilations": {"list": {"i": ["1", "1", "1", "1"]}}}}, {"name": "model_13/tf.math.sigmoid_6/Sigmoid", "op": "Sigmoid", "input": ["model_13/tf.math.add_8/Add"], "attr": {"T": {"type": "DT_FLOAT"}}}, {"name": "model_13/tf.math.multiply_29/Mul", "op": "Mul", "input": ["model_13/tf.math.add_8/Add", "model_13/tf.math.sigmoid_6/Sigmoid"], "attr": {"T": {"type": "DT_FLOAT"}}}, {"name": "model_13/tf.math.add_9/Add", "op": "_FusedConv2D", "input": ["model_13/tf.math.multiply_29/Mul", "model_13/tf.nn.convolution_7/convolution/filter", "model_13/tf.math.add_9/Add/y"], "device": "/device:CPU:0", "attr": {"num_host_args": {"i": "0"}, "data_format": {"s": "TkhXQw=="}, "filter_format": {"s": "SFdJTw=="}, "strides": {"list": {"i": ["1", "1", "1", "1"]}}, "num_args": {"i": "1"}, "fused_ops": {"list": {"s": ["Qmlhc0FkZA=="]}}, "TArgs": {"list": {"type": ["DT_FLOAT"]}}, "padding": {"s": "U0FNRQ=="}, "use_cudnn_on_gpu": {"b": true}, "leakyrelu_alpha": {"f": 0.2}, "epsilon": {"f": 0.0}, "T": {"type": "DT_FLOAT"}, "explicit_paddings": {"list": {}}, "dilations": {"list": {"i": ["1", "1", "1", "1"]}}}}, {"name": "model_13/tf.math.sigmoid_7/Sigmoid", "op": "Sigmoid", "input": ["model_13/tf.math.add_9/Add"], "attr": {"T": {"type": "DT_FLOAT"}}}, {"name": "model_13/tf.math.multiply_33/Mul", "op": "Mul", "input": ["model_13/tf.math.add_9/Add", "model_13/tf.math.sigmoid_7/Sigmoid"], "attr": {"T": {"type": "DT_FLOAT"}}}, {"name": "model_13/tf.strided_slice_2/StridedSlice", "op": "StridedSlice", "input": ["model_13/tf.math.multiply_33/Mul", "model_13/tf.strided_slice_2/ones_like/tensor", "model_13/tf.strided_slice_2/StridedSlice/end", "model_13/tf.strided_slice_2/ones_like"], "attr": {"shrink_axis_mask": {"i": "0"}, "Index": {"type": "DT_INT64"}, "new_axis_mask": {"i": "0"}, "begin_mask": {"i": "15"}, "end_mask": {"i": "7"}, "T": {"type": "DT_FLOAT"}, "ellipsis_mask": {"i": "0"}}}, {"name": "model_13/tf.strided_slice_3/StridedSlice", "op": "StridedSlice", "input": ["model_13/tf.math.multiply_33/Mul", "model_13/tf.strided_slice_3/ones_like/tensor", "model_13/tf.strided_slice_3/StridedSlice/end", "model_13/tf.strided_slice_3/ones_like"], "attr": {"shrink_axis_mask": {"i": "0"}, "new_axis_mask": {"i": "0"}, "Index": {"type": "DT_INT64"}, "begin_mask": {"i": "7"}, "end_mask": {"i": "7"}, "T": {"type": "DT_FLOAT"}, "ellipsis_mask": {"i": "0"}}}, {"name": "model_13/tf.math.add_10/Add", "op": "_FusedConv2D", "input": ["model_13/tf.strided_slice_3/StridedSlice", "model_13/tf.nn.convolution_8/convolution/filter", "model_13/tf.math.add_10/Add/y"], "device": "/device:CPU:0", "attr": {"num_host_args": {"i": "0"}, "data_format": {"s": "TkhXQw=="}, "filter_format": {"s": "SFdJTw=="}, "fused_ops": {"list": {"s": ["Qmlhc0FkZA=="]}}, "num_args": {"i": "1"}, "strides": {"list": {"i": ["1", "1", "1", "1"]}}, "TArgs": {"list": {"type": ["DT_FLOAT"]}}, "padding": {"s": "U0FNRQ=="}, "use_cudnn_on_gpu": {"b": true}, "leakyrelu_alpha": {"f": 0.2}, "epsilon": {"f": 0.0}, "T": {"type": "DT_FLOAT"}, "explicit_paddings": {"list": {}}, "dilations": {"list": {"i": ["1", "1", "1", "1"]}}}}, {"name": "model_13/tf.math.sigmoid_8/Sigmoid", "op": "Sigmoid", "input": ["model_13/tf.math.add_10/Add"], "attr": {"T": {"type": "DT_FLOAT"}}}, {"name": "model_13/tf.math.multiply_37/Mul", "op": "Mul", "input": ["model_13/tf.math.add_10/Add", "model_13/tf.math.sigmoid_8/Sigmoid"], "attr": {"T": {"type": "DT_FLOAT"}}}, {"name": "model_13/tf.math.add_11/Add", "op": "_FusedConv2D", "input": ["model_13/tf.math.multiply_37/Mul", "model_13/tf.nn.convolution_9/convolution/filter", "model_13/tf.math.add_11/Add/y"], "device": "/device:CPU:0", "attr": {"num_host_args": {"i": "0"}, "data_format": {"s": "TkhXQw=="}, "filter_format": {"s": "SFdJTw=="}, "fused_ops": {"list": {"s": ["Qmlhc0FkZA=="]}}, "num_args": {"i": "1"}, "strides": {"list": {"i": ["1", "1", "1", "1"]}}, "TArgs": {"list": {"type": ["DT_FLOAT"]}}, "padding": {"s": "U0FNRQ=="}, "use_cudnn_on_gpu": {"b": true}, "leakyrelu_alpha": {"f": 0.2}, "epsilon": {"f": 0.0}, "T": {"type": "DT_FLOAT"}, "explicit_paddings": {"list": {}}, "dilations": {"list": {"i": ["1", "1", "1", "1"]}}}}, {"name": "model_13/tf.math.sigmoid_9/Sigmoid", "op": "Sigmoid", "input": ["model_13/tf.math.add_11/Add"], "attr": {"T": {"type": "DT_FLOAT"}}}, {"name": "model_13/tf.math.multiply_41/Mul", "op": "Mul", "input": ["model_13/tf.math.add_11/Add", "model_13/tf.math.sigmoid_9/Sigmoid"], "attr": {"T": {"type": "DT_FLOAT"}}}, {"name": "model_13/tf.math.add_13/Add", "op": "AddV2", "input": ["model_13/tf.strided_slice_3/StridedSlice", "model_13/tf.math.multiply_41/Mul"], "attr": {"T": {"type": "DT_FLOAT"}}}, {"name": "model_13/tf.math.add_14/Add", "op": "_FusedConv2D", "input": ["model_13/tf.math.add_13/Add", "model_13/tf.nn.convolution_10/convolution/filter", "model_13/tf.math.add_14/Add/y"], "device": "/device:CPU:0", "attr": {"num_host_args": {"i": "0"}, "data_format": {"s": "TkhXQw=="}, "filter_format": {"s": "SFdJTw=="}, "fused_ops": {"list": {"s": ["Qmlhc0FkZA=="]}}, "num_args": {"i": "1"}, "strides": {"list": {"i": ["1", "1", "1", "1"]}}, "TArgs": {"list": {"type": ["DT_FLOAT"]}}, "padding": {"s": "U0FNRQ=="}, "use_cudnn_on_gpu": {"b": true}, "leakyrelu_alpha": {"f": 0.2}, "epsilon": {"f": 0.0}, "T": {"type": "DT_FLOAT"}, "explicit_paddings": {"list": {}}, "dilations": {"list": {"i": ["1", "1", "1", "1"]}}}}, {"name": "model_13/tf.math.sigmoid_10/Sigmoid", "op": "Sigmoid", "input": ["model_13/tf.math.add_14/Add"], "attr": {"T": {"type": "DT_FLOAT"}}}, {"name": "model_13/tf.math.multiply_47/Mul", "op": "Mul", "input": ["model_13/tf.math.add_14/Add", "model_13/tf.math.sigmoid_10/Sigmoid"], "attr": {"T": {"type": "DT_FLOAT"}}}, {"name": "model_13/tf.math.add_15/Add", "op": "_FusedConv2D", "input": ["model_13/tf.math.multiply_47/Mul", "model_13/tf.nn.convolution_11/convolution/filter", "model_13/tf.math.add_15/Add/y"], "device": "/device:CPU:0", "attr": {"num_host_args": {"i": "0"}, "data_format": {"s": "TkhXQw=="}, "filter_format": {"s": "SFdJTw=="}, "strides": {"list": {"i": ["1", "1", "1", "1"]}}, "num_args": {"i": "1"}, "fused_ops": {"list": {"s": ["Qmlhc0FkZA=="]}}, "TArgs": {"list": {"type": ["DT_FLOAT"]}}, "padding": {"s": "U0FNRQ=="}, "use_cudnn_on_gpu": {"b": true}, "leakyrelu_alpha": {"f": 0.2}, "epsilon": {"f": 0.0}, "T": {"type": "DT_FLOAT"}, "explicit_paddings": {"list": {}}, "dilations": {"list": {"i": ["1", "1", "1", "1"]}}}}, {"name": "model_13/tf.math.sigmoid_11/Sigmoid", "op": "Sigmoid", "input": ["model_13/tf.math.add_15/Add"], "attr": {"T": {"type": "DT_FLOAT"}}}, {"name": "model_13/tf.math.multiply_51/Mul", "op": "Mul", "input": ["model_13/tf.math.add_15/Add", "model_13/tf.math.sigmoid_11/Sigmoid"], "attr": {"T": {"type": "DT_FLOAT"}}}, {"name": "model_13/tf.math.add_17/Add", "op": "AddV2", "input": ["model_13/tf.math.add_13/Add", "model_13/tf.math.multiply_51/Mul"], "attr": {"T": {"type": "DT_FLOAT"}}}, {"name": "model_13/tf.concat_1/concat", "op": "ConcatV2", "input": ["model_13/tf.strided_slice_2/StridedSlice", "model_13/tf.strided_slice_3/StridedSlice", "model_13/tf.math.add_13/Add", "model_13/tf.math.add_17/Add", "model_13/tf.concat_1/concat/axis"], "attr": {"N": {"i": "4"}, "T": {"type": "DT_FLOAT"}, "Tidx": {"type": "DT_INT32"}}}, {"name": "model_13/tf.math.add_18/Add", "op": "_FusedConv2D", "input": ["model_13/tf.concat_1/concat", "model_13/tf.nn.convolution_12/convolution/filter", "model_13/tf.math.add_18/Add/y"], "device": "/device:CPU:0", "attr": {"num_host_args": {"i": "0"}, "data_format": {"s": "TkhXQw=="}, "filter_format": {"s": "SFdJTw=="}, "strides": {"list": {"i": ["1", "1", "1", "1"]}}, "num_args": {"i": "1"}, "fused_ops": {"list": {"s": ["Qmlhc0FkZA=="]}}, "TArgs": {"list": {"type": ["DT_FLOAT"]}}, "padding": {"s": "U0FNRQ=="}, "use_cudnn_on_gpu": {"b": true}, "leakyrelu_alpha": {"f": 0.2}, "epsilon": {"f": 0.0}, "T": {"type": "DT_FLOAT"}, "explicit_paddings": {"list": {}}, "dilations": {"list": {"i": ["1", "1", "1", "1"]}}}}, {"name": "model_13/tf.math.sigmoid_12/Sigmoid", "op": "Sigmoid", "input": ["model_13/tf.math.add_18/Add"], "attr": {"T": {"type": "DT_FLOAT"}}}, {"name": "model_13/tf.math.multiply_57/Mul", "op": "Mul", "input": ["model_13/tf.math.add_18/Add", "model_13/tf.math.sigmoid_12/Sigmoid"], "attr": {"T": {"type": "DT_FLOAT"}}}, {"name": "model_13/tf.compat.v1.pad_3/Pad", "op": "Pad", "input": ["model_13/tf.math.multiply_57/Mul", "model_13/tf.compat.v1.pad_3/Pad/paddings"], "attr": {"Tpaddings": {"type": "DT_INT32"}, "T": {"type": "DT_FLOAT"}}}, {"name": "model_13/tf.math.add_19/Add", "op": "_FusedConv2D", "input": ["model_13/tf.compat.v1.pad_3/Pad", "model_13/tf.nn.convolution_13/convolution/filter", "model_13/tf.math.add_19/Add/y"], "device": "/device:CPU:0", "attr": {"num_host_args": {"i": "0"}, "data_format": {"s": "TkhXQw=="}, "filter_format": {"s": "SFdJTw=="}, "strides": {"list": {"i": ["1", "2", "2", "1"]}}, "num_args": {"i": "1"}, "fused_ops": {"list": {"s": ["Qmlhc0FkZA=="]}}, "TArgs": {"list": {"type": ["DT_FLOAT"]}}, "padding": {"s": "VkFMSUQ="}, "use_cudnn_on_gpu": {"b": true}, "leakyrelu_alpha": {"f": 0.2}, "epsilon": {"f": 0.0}, "T": {"type": "DT_FLOAT"}, "explicit_paddings": {"list": {}}, "dilations": {"list": {"i": ["1", "1", "1", "1"]}}}}, {"name": "model_13/tf.math.sigmoid_13/Sigmoid", "op": "Sigmoid", "input": ["model_13/tf.math.add_19/Add"], "attr": {"T": {"type": "DT_FLOAT"}}}, {"name": "model_13/tf.math.multiply_61/Mul", "op": "Mul", "input": ["model_13/tf.math.add_19/Add", "model_13/tf.math.sigmoid_13/Sigmoid"], "attr": {"T": {"type": "DT_FLOAT"}}}, {"name": "model_13/tf.math.add_20/Add", "op": "_FusedConv2D", "input": ["model_13/tf.math.multiply_61/Mul", "model_13/tf.nn.convolution_14/convolution/filter", "model_13/tf.math.add_20/Add/y"], "device": "/device:CPU:0", "attr": {"num_host_args": {"i": "0"}, "data_format": {"s": "TkhXQw=="}, "filter_format": {"s": "SFdJTw=="}, "strides": {"list": {"i": ["1", "1", "1", "1"]}}, "num_args": {"i": "1"}, "fused_ops": {"list": {"s": ["Qmlhc0FkZA=="]}}, "TArgs": {"list": {"type": ["DT_FLOAT"]}}, "padding": {"s": "U0FNRQ=="}, "use_cudnn_on_gpu": {"b": true}, "leakyrelu_alpha": {"f": 0.2}, "epsilon": {"f": 0.0}, "T": {"type": "DT_FLOAT"}, "explicit_paddings": {"list": {}}, "dilations": {"list": {"i": ["1", "1", "1", "1"]}}}}, {"name": "model_13/tf.math.sigmoid_14/Sigmoid", "op": "Sigmoid", "input": ["model_13/tf.math.add_20/Add"], "attr": {"T": {"type": "DT_FLOAT"}}}, {"name": "model_13/tf.math.multiply_65/Mul", "op": "Mul", "input": ["model_13/tf.math.add_20/Add", "model_13/tf.math.sigmoid_14/Sigmoid"], "attr": {"T": {"type": "DT_FLOAT"}}}, {"name": "model_13/tf.strided_slice_4/StridedSlice", "op": "StridedSlice", "input": ["model_13/tf.math.multiply_65/Mul", "model_13/tf.strided_slice_4/ones_like/tensor", "model_13/tf.strided_slice_4/StridedSlice/end", "model_13/tf.strided_slice_4/ones_like"], "attr": {"shrink_axis_mask": {"i": "0"}, "Index": {"type": "DT_INT64"}, "new_axis_mask": {"i": "0"}, "begin_mask": {"i": "15"}, "end_mask": {"i": "7"}, "T": {"type": "DT_FLOAT"}, "ellipsis_mask": {"i": "0"}}}, {"name": "model_13/tf.strided_slice_5/StridedSlice", "op": "StridedSlice", "input": ["model_13/tf.math.multiply_65/Mul", "model_13/tf.strided_slice_5/ones_like/tensor", "model_13/tf.strided_slice_5/StridedSlice/end", "model_13/tf.strided_slice_5/ones_like"], "attr": {"shrink_axis_mask": {"i": "0"}, "new_axis_mask": {"i": "0"}, "Index": {"type": "DT_INT64"}, "begin_mask": {"i": "7"}, "T": {"type": "DT_FLOAT"}, "end_mask": {"i": "7"}, "ellipsis_mask": {"i": "0"}}}, {"name": "model_13/tf.math.add_21/Add", "op": "_FusedConv2D", "input": ["model_13/tf.strided_slice_5/StridedSlice", "model_13/tf.nn.convolution_15/convolution/filter", "model_13/tf.math.add_21/Add/y"], "device": "/device:CPU:0", "attr": {"num_host_args": {"i": "0"}, "data_format": {"s": "TkhXQw=="}, "filter_format": {"s": "SFdJTw=="}, "fused_ops": {"list": {"s": ["Qmlhc0FkZA=="]}}, "num_args": {"i": "1"}, "strides": {"list": {"i": ["1", "1", "1", "1"]}}, "TArgs": {"list": {"type": ["DT_FLOAT"]}}, "padding": {"s": "U0FNRQ=="}, "use_cudnn_on_gpu": {"b": true}, "leakyrelu_alpha": {"f": 0.2}, "epsilon": {"f": 0.0}, "T": {"type": "DT_FLOAT"}, "explicit_paddings": {"list": {}}, "dilations": {"list": {"i": ["1", "1", "1", "1"]}}}}, {"name": "model_13/tf.math.sigmoid_15/Sigmoid", "op": "Sigmoid", "input": ["model_13/tf.math.add_21/Add"], "attr": {"T": {"type": "DT_FLOAT"}}}, {"name": "model_13/tf.math.multiply_69/Mul", "op": "Mul", "input": ["model_13/tf.math.add_21/Add", "model_13/tf.math.sigmoid_15/Sigmoid"], "attr": {"T": {"type": "DT_FLOAT"}}}, {"name": "model_13/tf.math.add_22/Add", "op": "_FusedConv2D", "input": ["model_13/tf.math.multiply_69/Mul", "model_13/tf.nn.convolution_16/convolution/filter", "model_13/tf.math.add_22/Add/y"], "device": "/device:CPU:0", "attr": {"num_host_args": {"i": "0"}, "data_format": {"s": "TkhXQw=="}, "filter_format": {"s": "SFdJTw=="}, "strides": {"list": {"i": ["1", "1", "1", "1"]}}, "num_args": {"i": "1"}, "fused_ops": {"list": {"s": ["Qmlhc0FkZA=="]}}, "TArgs": {"list": {"type": ["DT_FLOAT"]}}, "padding": {"s": "U0FNRQ=="}, "use_cudnn_on_gpu": {"b": true}, "leakyrelu_alpha": {"f": 0.2}, "epsilon": {"f": 0.0}, "T": {"type": "DT_FLOAT"}, "explicit_paddings": {"list": {}}, "dilations": {"list": {"i": ["1", "1", "1", "1"]}}}}, {"name": "model_13/tf.math.sigmoid_16/Sigmoid", "op": "Sigmoid", "input": ["model_13/tf.math.add_22/Add"], "attr": {"T": {"type": "DT_FLOAT"}}}, {"name": "model_13/tf.math.multiply_73/Mul", "op": "Mul", "input": ["model_13/tf.math.add_22/Add", "model_13/tf.math.sigmoid_16/Sigmoid"], "attr": {"T": {"type": "DT_FLOAT"}}}, {"name": "model_13/tf.math.add_24/Add", "op": "AddV2", "input": ["model_13/tf.strided_slice_5/StridedSlice", "model_13/tf.math.multiply_73/Mul"], "attr": {"T": {"type": "DT_FLOAT"}}}, {"name": "model_13/tf.math.add_25/Add", "op": "_FusedConv2D", "input": ["model_13/tf.math.add_24/Add", "model_13/tf.nn.convolution_17/convolution/filter", "model_13/tf.math.add_25/Add/y"], "device": "/device:CPU:0", "attr": {"num_host_args": {"i": "0"}, "data_format": {"s": "TkhXQw=="}, "filter_format": {"s": "SFdJTw=="}, "strides": {"list": {"i": ["1", "1", "1", "1"]}}, "num_args": {"i": "1"}, "fused_ops": {"list": {"s": ["Qmlhc0FkZA=="]}}, "TArgs": {"list": {"type": ["DT_FLOAT"]}}, "padding": {"s": "U0FNRQ=="}, "use_cudnn_on_gpu": {"b": true}, "leakyrelu_alpha": {"f": 0.2}, "epsilon": {"f": 0.0}, "T": {"type": "DT_FLOAT"}, "explicit_paddings": {"list": {}}, "dilations": {"list": {"i": ["1", "1", "1", "1"]}}}}, {"name": "model_13/tf.math.sigmoid_17/Sigmoid", "op": "Sigmoid", "input": ["model_13/tf.math.add_25/Add"], "attr": {"T": {"type": "DT_FLOAT"}}}, {"name": "model_13/tf.math.multiply_79/Mul", "op": "Mul", "input": ["model_13/tf.math.add_25/Add", "model_13/tf.math.sigmoid_17/Sigmoid"], "attr": {"T": {"type": "DT_FLOAT"}}}, {"name": "model_13/tf.math.add_26/Add", "op": "_FusedConv2D", "input": ["model_13/tf.math.multiply_79/Mul", "model_13/tf.nn.convolution_18/convolution/filter", "model_13/tf.math.add_26/Add/y"], "device": "/device:CPU:0", "attr": {"num_host_args": {"i": "0"}, "data_format": {"s": "TkhXQw=="}, "filter_format": {"s": "SFdJTw=="}, "strides": {"list": {"i": ["1", "1", "1", "1"]}}, "num_args": {"i": "1"}, "fused_ops": {"list": {"s": ["Qmlhc0FkZA=="]}}, "TArgs": {"list": {"type": ["DT_FLOAT"]}}, "padding": {"s": "U0FNRQ=="}, "use_cudnn_on_gpu": {"b": true}, "leakyrelu_alpha": {"f": 0.2}, "epsilon": {"f": 0.0}, "T": {"type": "DT_FLOAT"}, "explicit_paddings": {"list": {}}, "dilations": {"list": {"i": ["1", "1", "1", "1"]}}}}, {"name": "model_13/tf.math.sigmoid_18/Sigmoid", "op": "Sigmoid", "input": ["model_13/tf.math.add_26/Add"], "attr": {"T": {"type": "DT_FLOAT"}}}, {"name": "model_13/tf.math.multiply_83/Mul", "op": "Mul", "input": ["model_13/tf.math.add_26/Add", "model_13/tf.math.sigmoid_18/Sigmoid"], "attr": {"T": {"type": "DT_FLOAT"}}}, {"name": "model_13/tf.math.add_28/Add", "op": "AddV2", "input": ["model_13/tf.math.add_24/Add", "model_13/tf.math.multiply_83/Mul"], "attr": {"T": {"type": "DT_FLOAT"}}}, {"name": "model_13/tf.concat_2/concat", "op": "ConcatV2", "input": ["model_13/tf.strided_slice_4/StridedSlice", "model_13/tf.strided_slice_5/StridedSlice", "model_13/tf.math.add_24/Add", "model_13/tf.math.add_28/Add", "model_13/tf.concat_2/concat/axis"], "attr": {"N": {"i": "4"}, "Tidx": {"type": "DT_INT32"}, "T": {"type": "DT_FLOAT"}}}, {"name": "model_13/tf.math.add_29/Add", "op": "_FusedConv2D", "input": ["model_13/tf.concat_2/concat", "model_13/tf.nn.convolution_19/convolution/filter", "model_13/tf.math.add_29/Add/y"], "device": "/device:CPU:0", "attr": {"num_host_args": {"i": "0"}, "data_format": {"s": "TkhXQw=="}, "filter_format": {"s": "SFdJTw=="}, "fused_ops": {"list": {"s": ["Qmlhc0FkZA=="]}}, "num_args": {"i": "1"}, "strides": {"list": {"i": ["1", "1", "1", "1"]}}, "TArgs": {"list": {"type": ["DT_FLOAT"]}}, "padding": {"s": "U0FNRQ=="}, "use_cudnn_on_gpu": {"b": true}, "leakyrelu_alpha": {"f": 0.2}, "epsilon": {"f": 0.0}, "T": {"type": "DT_FLOAT"}, "explicit_paddings": {"list": {}}, "dilations": {"list": {"i": ["1", "1", "1", "1"]}}}}, {"name": "model_13/tf.math.sigmoid_19/Sigmoid", "op": "Sigmoid", "input": ["model_13/tf.math.add_29/Add"], "attr": {"T": {"type": "DT_FLOAT"}}}, {"name": "model_13/tf.math.multiply_89/Mul", "op": "Mul", "input": ["model_13/tf.math.add_29/Add", "model_13/tf.math.sigmoid_19/Sigmoid"], "attr": {"T": {"type": "DT_FLOAT"}}}, {"name": "model_13/tf.compat.v1.pad_4/Pad", "op": "Pad", "input": ["model_13/tf.math.multiply_89/Mul", "model_13/tf.compat.v1.pad_4/Pad/paddings"], "attr": {"Tpaddings": {"type": "DT_INT32"}, "T": {"type": "DT_FLOAT"}}}, {"name": "model_13/tf.math.add_30/Add", "op": "_FusedConv2D", "input": ["model_13/tf.compat.v1.pad_4/Pad", "model_13/tf.nn.convolution_20/convolution/filter", "model_13/tf.math.add_30/Add/y"], "device": "/device:CPU:0", "attr": {"num_host_args": {"i": "0"}, "data_format": {"s": "TkhXQw=="}, "filter_format": {"s": "SFdJTw=="}, "fused_ops": {"list": {"s": ["Qmlhc0FkZA=="]}}, "num_args": {"i": "1"}, "strides": {"list": {"i": ["1", "2", "2", "1"]}}, "TArgs": {"list": {"type": ["DT_FLOAT"]}}, "padding": {"s": "VkFMSUQ="}, "use_cudnn_on_gpu": {"b": true}, "leakyrelu_alpha": {"f": 0.2}, "epsilon": {"f": 0.0}, "T": {"type": "DT_FLOAT"}, "explicit_paddings": {"list": {}}, "dilations": {"list": {"i": ["1", "1", "1", "1"]}}}}, {"name": "model_13/tf.math.sigmoid_20/Sigmoid", "op": "Sigmoid", "input": ["model_13/tf.math.add_30/Add"], "attr": {"T": {"type": "DT_FLOAT"}}}, {"name": "model_13/tf.math.multiply_93/Mul", "op": "Mul", "input": ["model_13/tf.math.add_30/Add", "model_13/tf.math.sigmoid_20/Sigmoid"], "attr": {"T": {"type": "DT_FLOAT"}}}, {"name": "model_13/tf.math.add_31/Add", "op": "_FusedConv2D", "input": ["model_13/tf.math.multiply_93/Mul", "model_13/tf.nn.convolution_21/convolution/filter", "model_13/tf.math.add_31/Add/y"], "device": "/device:CPU:0", "attr": {"num_host_args": {"i": "0"}, "data_format": {"s": "TkhXQw=="}, "filter_format": {"s": "SFdJTw=="}, "fused_ops": {"list": {"s": ["Qmlhc0FkZA=="]}}, "num_args": {"i": "1"}, "strides": {"list": {"i": ["1", "1", "1", "1"]}}, "TArgs": {"list": {"type": ["DT_FLOAT"]}}, "padding": {"s": "U0FNRQ=="}, "use_cudnn_on_gpu": {"b": true}, "leakyrelu_alpha": {"f": 0.2}, "epsilon": {"f": 0.0}, "T": {"type": "DT_FLOAT"}, "explicit_paddings": {"list": {}}, "dilations": {"list": {"i": ["1", "1", "1", "1"]}}}}, {"name": "model_13/tf.math.sigmoid_21/Sigmoid", "op": "Sigmoid", "input": ["model_13/tf.math.add_31/Add"], "attr": {"T": {"type": "DT_FLOAT"}}}, {"name": "model_13/tf.math.multiply_97/Mul", "op": "Mul", "input": ["model_13/tf.math.add_31/Add", "model_13/tf.math.sigmoid_21/Sigmoid"], "attr": {"T": {"type": "DT_FLOAT"}}}, {"name": "model_13/tf.strided_slice_6/StridedSlice", "op": "StridedSlice", "input": ["model_13/tf.math.multiply_97/Mul", "model_13/tf.strided_slice_6/ones_like/tensor", "model_13/tf.strided_slice_6/StridedSlice/end", "model_13/tf.strided_slice_6/ones_like"], "attr": {"shrink_axis_mask": {"i": "0"}, "new_axis_mask": {"i": "0"}, "Index": {"type": "DT_INT64"}, "begin_mask": {"i": "15"}, "T": {"type": "DT_FLOAT"}, "end_mask": {"i": "7"}, "ellipsis_mask": {"i": "0"}}}, {"name": "model_13/tf.strided_slice_7/StridedSlice", "op": "StridedSlice", "input": ["model_13/tf.math.multiply_97/Mul", "model_13/tf.strided_slice_7/ones_like/tensor", "model_13/tf.strided_slice_7/StridedSlice/end", "model_13/tf.strided_slice_7/ones_like"], "attr": {"shrink_axis_mask": {"i": "0"}, "Index": {"type": "DT_INT64"}, "new_axis_mask": {"i": "0"}, "begin_mask": {"i": "7"}, "T": {"type": "DT_FLOAT"}, "end_mask": {"i": "7"}, "ellipsis_mask": {"i": "0"}}}, {"name": "model_13/tf.math.add_32/Add", "op": "_FusedConv2D", "input": ["model_13/tf.strided_slice_7/StridedSlice", "model_13/tf.nn.convolution_22/convolution/filter", "model_13/tf.math.add_32/Add/y"], "device": "/device:CPU:0", "attr": {"num_host_args": {"i": "0"}, "data_format": {"s": "TkhXQw=="}, "filter_format": {"s": "SFdJTw=="}, "fused_ops": {"list": {"s": ["Qmlhc0FkZA=="]}}, "num_args": {"i": "1"}, "strides": {"list": {"i": ["1", "1", "1", "1"]}}, "TArgs": {"list": {"type": ["DT_FLOAT"]}}, "padding": {"s": "U0FNRQ=="}, "use_cudnn_on_gpu": {"b": true}, "leakyrelu_alpha": {"f": 0.2}, "epsilon": {"f": 0.0}, "T": {"type": "DT_FLOAT"}, "explicit_paddings": {"list": {}}, "dilations": {"list": {"i": ["1", "1", "1", "1"]}}}}, {"name": "model_13/tf.math.sigmoid_22/Sigmoid", "op": "Sigmoid", "input": ["model_13/tf.math.add_32/Add"], "attr": {"T": {"type": "DT_FLOAT"}}}, {"name": "model_13/tf.math.multiply_101/Mul", "op": "Mul", "input": ["model_13/tf.math.add_32/Add", "model_13/tf.math.sigmoid_22/Sigmoid"], "attr": {"T": {"type": "DT_FLOAT"}}}, {"name": "model_13/tf.math.add_33/Add", "op": "_FusedConv2D", "input": ["model_13/tf.math.multiply_101/Mul", "model_13/tf.nn.convolution_23/convolution/filter", "model_13/tf.math.add_33/Add/y"], "device": "/device:CPU:0", "attr": {"num_host_args": {"i": "0"}, "data_format": {"s": "TkhXQw=="}, "filter_format": {"s": "SFdJTw=="}, "strides": {"list": {"i": ["1", "1", "1", "1"]}}, "num_args": {"i": "1"}, "fused_ops": {"list": {"s": ["Qmlhc0FkZA=="]}}, "TArgs": {"list": {"type": ["DT_FLOAT"]}}, "padding": {"s": "U0FNRQ=="}, "use_cudnn_on_gpu": {"b": true}, "leakyrelu_alpha": {"f": 0.2}, "epsilon": {"f": 0.0}, "T": {"type": "DT_FLOAT"}, "explicit_paddings": {"list": {}}, "dilations": {"list": {"i": ["1", "1", "1", "1"]}}}}, {"name": "model_13/tf.math.sigmoid_23/Sigmoid", "op": "Sigmoid", "input": ["model_13/tf.math.add_33/Add"], "attr": {"T": {"type": "DT_FLOAT"}}}, {"name": "model_13/tf.math.multiply_105/Mul", "op": "Mul", "input": ["model_13/tf.math.add_33/Add", "model_13/tf.math.sigmoid_23/Sigmoid"], "attr": {"T": {"type": "DT_FLOAT"}}}, {"name": "model_13/tf.math.add_35/Add", "op": "AddV2", "input": ["model_13/tf.strided_slice_7/StridedSlice", "model_13/tf.math.multiply_105/Mul"], "attr": {"T": {"type": "DT_FLOAT"}}}, {"name": "model_13/tf.concat_3/concat", "op": "ConcatV2", "input": ["model_13/tf.strided_slice_6/StridedSlice", "model_13/tf.strided_slice_7/StridedSlice", "model_13/tf.math.add_35/Add", "model_13/tf.concat_3/concat/axis"], "attr": {"N": {"i": "3"}, "T": {"type": "DT_FLOAT"}, "Tidx": {"type": "DT_INT32"}}}, {"name": "model_13/tf.math.add_36/Add", "op": "_FusedConv2D", "input": ["model_13/tf.concat_3/concat", "model_13/tf.nn.convolution_24/convolution/filter", "model_13/tf.math.add_36/Add/y"], "device": "/device:CPU:0", "attr": {"num_host_args": {"i": "0"}, "data_format": {"s": "TkhXQw=="}, "filter_format": {"s": "SFdJTw=="}, "strides": {"list": {"i": ["1", "1", "1", "1"]}}, "num_args": {"i": "1"}, "fused_ops": {"list": {"s": ["Qmlhc0FkZA=="]}}, "TArgs": {"list": {"type": ["DT_FLOAT"]}}, "padding": {"s": "U0FNRQ=="}, "use_cudnn_on_gpu": {"b": true}, "leakyrelu_alpha": {"f": 0.2}, "epsilon": {"f": 0.0}, "T": {"type": "DT_FLOAT"}, "explicit_paddings": {"list": {}}, "dilations": {"list": {"i": ["1", "1", "1", "1"]}}}}, {"name": "model_13/tf.math.sigmoid_24/Sigmoid", "op": "Sigmoid", "input": ["model_13/tf.math.add_36/Add"], "attr": {"T": {"type": "DT_FLOAT"}}}, {"name": "model_13/tf.math.multiply_111/Mul", "op": "Mul", "input": ["model_13/tf.math.add_36/Add", "model_13/tf.math.sigmoid_24/Sigmoid"], "attr": {"T": {"type": "DT_FLOAT"}}}, {"name": "model_13/tf.math.add_37/Add", "op": "_FusedConv2D", "input": ["model_13/tf.math.multiply_111/Mul", "model_13/tf.nn.convolution_25/convolution/filter", "model_13/tf.math.add_37/Add/y"], "device": "/device:CPU:0", "attr": {"num_host_args": {"i": "0"}, "data_format": {"s": "TkhXQw=="}, "filter_format": {"s": "SFdJTw=="}, "fused_ops": {"list": {"s": ["Qmlhc0FkZA=="]}}, "num_args": {"i": "1"}, "strides": {"list": {"i": ["1", "1", "1", "1"]}}, "TArgs": {"list": {"type": ["DT_FLOAT"]}}, "padding": {"s": "U0FNRQ=="}, "use_cudnn_on_gpu": {"b": true}, "leakyrelu_alpha": {"f": 0.2}, "epsilon": {"f": 0.0}, "T": {"type": "DT_FLOAT"}, "explicit_paddings": {"list": {}}, "dilations": {"list": {"i": ["1", "1", "1", "1"]}}}}, {"name": "model_13/tf.math.sigmoid_25/Sigmoid", "op": "Sigmoid", "input": ["model_13/tf.math.add_37/Add"], "attr": {"T": {"type": "DT_FLOAT"}}}, {"name": "model_13/tf.math.multiply_115/Mul", "op": "Mul", "input": ["model_13/tf.math.add_37/Add", "model_13/tf.math.sigmoid_25/Sigmoid"], "attr": {"T": {"type": "DT_FLOAT"}}}, {"name": "model_13/tf.compat.v1.nn.pool/max_pool", "op": "MaxPool", "input": ["model_13/tf.math.multiply_115/Mul"], "attr": {"padding": {"s": "U0FNRQ=="}, "data_format": {"s": "TkhXQw=="}, "T": {"type": "DT_FLOAT"}, "explicit_paddings": {"list": {}}, "ksize": {"list": {"i": ["1", "5", "5", "1"]}}, "strides": {"list": {"i": ["1", "1", "1", "1"]}}}}, {"name": "model_13/tf.compat.v1.nn.pool_1/max_pool", "op": "MaxPool", "input": ["model_13/tf.compat.v1.nn.pool/max_pool"], "attr": {"ksize": {"list": {"i": ["1", "5", "5", "1"]}}, "data_format": {"s": "TkhXQw=="}, "T": {"type": "DT_FLOAT"}, "explicit_paddings": {"list": {}}, "padding": {"s": "U0FNRQ=="}, "strides": {"list": {"i": ["1", "1", "1", "1"]}}}}, {"name": "model_13/tf.compat.v1.nn.pool_2/max_pool", "op": "MaxPool", "input": ["model_13/tf.compat.v1.nn.pool_1/max_pool"], "attr": {"ksize": {"list": {"i": ["1", "5", "5", "1"]}}, "data_format": {"s": "TkhXQw=="}, "T": {"type": "DT_FLOAT"}, "explicit_paddings": {"list": {}}, "padding": {"s": "U0FNRQ=="}, "strides": {"list": {"i": ["1", "1", "1", "1"]}}}}, {"name": "model_13/tf.concat_4/concat", "op": "ConcatV2", "input": ["model_13/tf.math.multiply_115/Mul", "model_13/tf.compat.v1.nn.pool/max_pool", "model_13/tf.compat.v1.nn.pool_1/max_pool", "model_13/tf.compat.v1.nn.pool_2/max_pool", "model_13/tf.concat_4/concat/axis"], "attr": {"N": {"i": "4"}, "T": {"type": "DT_FLOAT"}, "Tidx": {"type": "DT_INT32"}}}, {"name": "model_13/tf.math.add_38/Add", "op": "_FusedConv2D", "input": ["model_13/tf.concat_4/concat", "model_13/tf.nn.convolution_26/convolution/filter", "model_13/tf.math.add_38/Add/y"], "device": "/device:CPU:0", "attr": {"num_host_args": {"i": "0"}, "data_format": {"s": "TkhXQw=="}, "filter_format": {"s": "SFdJTw=="}, "strides": {"list": {"i": ["1", "1", "1", "1"]}}, "num_args": {"i": "1"}, "fused_ops": {"list": {"s": ["Qmlhc0FkZA=="]}}, "TArgs": {"list": {"type": ["DT_FLOAT"]}}, "padding": {"s": "U0FNRQ=="}, "use_cudnn_on_gpu": {"b": true}, "leakyrelu_alpha": {"f": 0.2}, "epsilon": {"f": 0.0}, "T": {"type": "DT_FLOAT"}, "explicit_paddings": {"list": {}}, "dilations": {"list": {"i": ["1", "1", "1", "1"]}}}}, {"name": "model_13/tf.math.sigmoid_26/Sigmoid", "op": "Sigmoid", "input": ["model_13/tf.math.add_38/Add"], "attr": {"T": {"type": "DT_FLOAT"}}}, {"name": "model_13/tf.math.multiply_119/Mul", "op": "Mul", "input": ["model_13/tf.math.add_38/Add", "model_13/tf.math.sigmoid_26/Sigmoid"], "attr": {"T": {"type": "DT_FLOAT"}}}, {"name": "model_13/tf.image.resize/resize/ResizeNearestNeighbor", "op": "ResizeNearestNeighbor", "input": ["model_13/tf.math.multiply_119/Mul", "model_13/tf.image.resize/resize/size"], "attr": {"T": {"type": "DT_FLOAT"}, "align_corners": {"b": false}, "half_pixel_centers": {"b": true}}}, {"name": "model_13/tf.concat_5/concat", "op": "ConcatV2", "input": ["model_13/tf.image.resize/resize/ResizeNearestNeighbor", "model_13/tf.math.multiply_89/Mul", "model_13/tf.concat_5/concat/axis"], "attr": {"N": {"i": "2"}, "Tidx": {"type": "DT_INT32"}, "T": {"type": "DT_FLOAT"}}}, {"name": "model_13/tf.math.add_39/Add", "op": "_FusedConv2D", "input": ["model_13/tf.concat_5/concat", "model_13/tf.nn.convolution_27/convolution/filter", "model_13/tf.math.add_39/Add/y"], "device": "/device:CPU:0", "attr": {"num_host_args": {"i": "0"}, "data_format": {"s": "TkhXQw=="}, "filter_format": {"s": "SFdJTw=="}, "fused_ops": {"list": {"s": ["Qmlhc0FkZA=="]}}, "num_args": {"i": "1"}, "strides": {"list": {"i": ["1", "1", "1", "1"]}}, "TArgs": {"list": {"type": ["DT_FLOAT"]}}, "padding": {"s": "U0FNRQ=="}, "use_cudnn_on_gpu": {"b": true}, "leakyrelu_alpha": {"f": 0.2}, "epsilon": {"f": 0.0}, "T": {"type": "DT_FLOAT"}, "explicit_paddings": {"list": {}}, "dilations": {"list": {"i": ["1", "1", "1", "1"]}}}}, {"name": "model_13/tf.math.sigmoid_27/Sigmoid", "op": "Sigmoid", "input": ["model_13/tf.math.add_39/Add"], "attr": {"T": {"type": "DT_FLOAT"}}}, {"name": "model_13/tf.math.multiply_123/Mul", "op": "Mul", "input": ["model_13/tf.math.add_39/Add", "model_13/tf.math.sigmoid_27/Sigmoid"], "attr": {"T": {"type": "DT_FLOAT"}}}, {"name": "model_13/tf.strided_slice_8/StridedSlice", "op": "StridedSlice", "input": ["model_13/tf.math.multiply_123/Mul", "model_13/tf.strided_slice_8/ones_like/tensor", "model_13/tf.strided_slice_8/StridedSlice/end", "model_13/tf.strided_slice_8/ones_like"], "attr": {"shrink_axis_mask": {"i": "0"}, "new_axis_mask": {"i": "0"}, "Index": {"type": "DT_INT64"}, "begin_mask": {"i": "15"}, "end_mask": {"i": "7"}, "T": {"type": "DT_FLOAT"}, "ellipsis_mask": {"i": "0"}}}, {"name": "model_13/tf.strided_slice_9/StridedSlice", "op": "StridedSlice", "input": ["model_13/tf.math.multiply_123/Mul", "model_13/tf.strided_slice_9/ones_like/tensor", "model_13/tf.strided_slice_9/StridedSlice/end", "model_13/tf.strided_slice_9/ones_like"], "attr": {"shrink_axis_mask": {"i": "0"}, "new_axis_mask": {"i": "0"}, "Index": {"type": "DT_INT64"}, "begin_mask": {"i": "7"}, "end_mask": {"i": "7"}, "T": {"type": "DT_FLOAT"}, "ellipsis_mask": {"i": "0"}}}, {"name": "model_13/tf.math.add_40/Add", "op": "_FusedConv2D", "input": ["model_13/tf.strided_slice_9/StridedSlice", "model_13/tf.nn.convolution_28/convolution/filter", "model_13/tf.math.add_40/Add/y"], "device": "/device:CPU:0", "attr": {"num_host_args": {"i": "0"}, "data_format": {"s": "TkhXQw=="}, "filter_format": {"s": "SFdJTw=="}, "fused_ops": {"list": {"s": ["Qmlhc0FkZA=="]}}, "num_args": {"i": "1"}, "strides": {"list": {"i": ["1", "1", "1", "1"]}}, "TArgs": {"list": {"type": ["DT_FLOAT"]}}, "padding": {"s": "U0FNRQ=="}, "use_cudnn_on_gpu": {"b": true}, "leakyrelu_alpha": {"f": 0.2}, "epsilon": {"f": 0.0}, "T": {"type": "DT_FLOAT"}, "explicit_paddings": {"list": {}}, "dilations": {"list": {"i": ["1", "1", "1", "1"]}}}}, {"name": "model_13/tf.math.sigmoid_28/Sigmoid", "op": "Sigmoid", "input": ["model_13/tf.math.add_40/Add"], "attr": {"T": {"type": "DT_FLOAT"}}}, {"name": "model_13/tf.math.multiply_127/Mul", "op": "Mul", "input": ["model_13/tf.math.add_40/Add", "model_13/tf.math.sigmoid_28/Sigmoid"], "attr": {"T": {"type": "DT_FLOAT"}}}, {"name": "model_13/tf.math.add_41/Add", "op": "_FusedConv2D", "input": ["model_13/tf.math.multiply_127/Mul", "model_13/tf.nn.convolution_29/convolution/filter", "model_13/tf.math.add_41/Add/y"], "device": "/device:CPU:0", "attr": {"num_host_args": {"i": "0"}, "data_format": {"s": "TkhXQw=="}, "filter_format": {"s": "SFdJTw=="}, "fused_ops": {"list": {"s": ["Qmlhc0FkZA=="]}}, "num_args": {"i": "1"}, "strides": {"list": {"i": ["1", "1", "1", "1"]}}, "TArgs": {"list": {"type": ["DT_FLOAT"]}}, "padding": {"s": "U0FNRQ=="}, "use_cudnn_on_gpu": {"b": true}, "leakyrelu_alpha": {"f": 0.2}, "epsilon": {"f": 0.0}, "T": {"type": "DT_FLOAT"}, "explicit_paddings": {"list": {}}, "dilations": {"list": {"i": ["1", "1", "1", "1"]}}}}, {"name": "model_13/tf.math.sigmoid_29/Sigmoid", "op": "Sigmoid", "input": ["model_13/tf.math.add_41/Add"], "attr": {"T": {"type": "DT_FLOAT"}}}, {"name": "model_13/tf.math.multiply_131/Mul", "op": "Mul", "input": ["model_13/tf.math.add_41/Add", "model_13/tf.math.sigmoid_29/Sigmoid"], "attr": {"T": {"type": "DT_FLOAT"}}}, {"name": "model_13/tf.concat_6/concat", "op": "ConcatV2", "input": ["model_13/tf.strided_slice_8/StridedSlice", "model_13/tf.strided_slice_9/StridedSlice", "model_13/tf.math.multiply_131/Mul", "model_13/tf.concat_6/concat/axis"], "attr": {"N": {"i": "3"}, "Tidx": {"type": "DT_INT32"}, "T": {"type": "DT_FLOAT"}}}, {"name": "model_13/tf.math.add_42/Add", "op": "_FusedConv2D", "input": ["model_13/tf.concat_6/concat", "model_13/tf.nn.convolution_30/convolution/filter", "model_13/tf.math.add_42/Add/y"], "device": "/device:CPU:0", "attr": {"num_host_args": {"i": "0"}, "data_format": {"s": "TkhXQw=="}, "filter_format": {"s": "SFdJTw=="}, "strides": {"list": {"i": ["1", "1", "1", "1"]}}, "num_args": {"i": "1"}, "fused_ops": {"list": {"s": ["Qmlhc0FkZA=="]}}, "TArgs": {"list": {"type": ["DT_FLOAT"]}}, "padding": {"s": "U0FNRQ=="}, "use_cudnn_on_gpu": {"b": true}, "leakyrelu_alpha": {"f": 0.2}, "epsilon": {"f": 0.0}, "T": {"type": "DT_FLOAT"}, "explicit_paddings": {"list": {}}, "dilations": {"list": {"i": ["1", "1", "1", "1"]}}}}, {"name": "model_13/tf.math.sigmoid_30/Sigmoid", "op": "Sigmoid", "input": ["model_13/tf.math.add_42/Add"], "attr": {"T": {"type": "DT_FLOAT"}}}, {"name": "model_13/tf.math.multiply_135/Mul", "op": "Mul", "input": ["model_13/tf.math.add_42/Add", "model_13/tf.math.sigmoid_30/Sigmoid"], "attr": {"T": {"type": "DT_FLOAT"}}}, {"name": "model_13/tf.image.resize_1/resize/ResizeNearestNeighbor", "op": "ResizeNearestNeighbor", "input": ["model_13/tf.math.multiply_135/Mul", "model_13/tf.image.resize_1/resize/size"], "attr": {"T": {"type": "DT_FLOAT"}, "align_corners": {"b": false}, "half_pixel_centers": {"b": true}}}, {"name": "model_13/tf.concat_7/concat", "op": "ConcatV2", "input": ["model_13/tf.image.resize_1/resize/ResizeNearestNeighbor", "model_13/tf.math.multiply_57/Mul", "model_13/tf.concat_7/concat/axis"], "attr": {"N": {"i": "2"}, "Tidx": {"type": "DT_INT32"}, "T": {"type": "DT_FLOAT"}}}, {"name": "model_13/tf.math.add_43/Add", "op": "_FusedConv2D", "input": ["model_13/tf.concat_7/concat", "model_13/tf.nn.convolution_31/convolution/filter", "model_13/tf.math.add_43/Add/y"], "device": "/device:CPU:0", "attr": {"num_host_args": {"i": "0"}, "data_format": {"s": "TkhXQw=="}, "filter_format": {"s": "SFdJTw=="}, "fused_ops": {"list": {"s": ["Qmlhc0FkZA=="]}}, "num_args": {"i": "1"}, "strides": {"list": {"i": ["1", "1", "1", "1"]}}, "TArgs": {"list": {"type": ["DT_FLOAT"]}}, "padding": {"s": "U0FNRQ=="}, "use_cudnn_on_gpu": {"b": true}, "leakyrelu_alpha": {"f": 0.2}, "epsilon": {"f": 0.0}, "T": {"type": "DT_FLOAT"}, "explicit_paddings": {"list": {}}, "dilations": {"list": {"i": ["1", "1", "1", "1"]}}}}, {"name": "model_13/tf.math.sigmoid_31/Sigmoid", "op": "Sigmoid", "input": ["model_13/tf.math.add_43/Add"], "attr": {"T": {"type": "DT_FLOAT"}}}, {"name": "model_13/tf.math.multiply_139/Mul", "op": "Mul", "input": ["model_13/tf.math.add_43/Add", "model_13/tf.math.sigmoid_31/Sigmoid"], "attr": {"T": {"type": "DT_FLOAT"}}}, {"name": "model_13/tf.strided_slice_10/StridedSlice", "op": "StridedSlice", "input": ["model_13/tf.math.multiply_139/Mul", "model_13/tf.strided_slice_10/ones_like/tensor", "model_13/tf.strided_slice_10/StridedSlice/end", "model_13/tf.strided_slice_10/ones_like"], "attr": {"shrink_axis_mask": {"i": "0"}, "new_axis_mask": {"i": "0"}, "Index": {"type": "DT_INT64"}, "begin_mask": {"i": "15"}, "end_mask": {"i": "7"}, "T": {"type": "DT_FLOAT"}, "ellipsis_mask": {"i": "0"}}}, {"name": "model_13/tf.strided_slice_11/StridedSlice", "op": "StridedSlice", "input": ["model_13/tf.math.multiply_139/Mul", "model_13/tf.strided_slice_11/ones_like/tensor", "model_13/tf.strided_slice_11/StridedSlice/end", "model_13/tf.strided_slice_11/ones_like"], "attr": {"shrink_axis_mask": {"i": "0"}, "new_axis_mask": {"i": "0"}, "Index": {"type": "DT_INT64"}, "begin_mask": {"i": "7"}, "end_mask": {"i": "7"}, "T": {"type": "DT_FLOAT"}, "ellipsis_mask": {"i": "0"}}}, {"name": "model_13/tf.math.add_44/Add", "op": "_FusedConv2D", "input": ["model_13/tf.strided_slice_11/StridedSlice", "model_13/tf.nn.convolution_32/convolution/filter", "model_13/tf.math.add_44/Add/y"], "device": "/device:CPU:0", "attr": {"num_host_args": {"i": "0"}, "data_format": {"s": "TkhXQw=="}, "filter_format": {"s": "SFdJTw=="}, "fused_ops": {"list": {"s": ["Qmlhc0FkZA=="]}}, "num_args": {"i": "1"}, "strides": {"list": {"i": ["1", "1", "1", "1"]}}, "TArgs": {"list": {"type": ["DT_FLOAT"]}}, "padding": {"s": "U0FNRQ=="}, "use_cudnn_on_gpu": {"b": true}, "leakyrelu_alpha": {"f": 0.2}, "epsilon": {"f": 0.0}, "T": {"type": "DT_FLOAT"}, "explicit_paddings": {"list": {}}, "dilations": {"list": {"i": ["1", "1", "1", "1"]}}}}, {"name": "model_13/tf.math.sigmoid_32/Sigmoid", "op": "Sigmoid", "input": ["model_13/tf.math.add_44/Add"], "attr": {"T": {"type": "DT_FLOAT"}}}, {"name": "model_13/tf.math.multiply_143/Mul", "op": "Mul", "input": ["model_13/tf.math.add_44/Add", "model_13/tf.math.sigmoid_32/Sigmoid"], "attr": {"T": {"type": "DT_FLOAT"}}}, {"name": "model_13/tf.math.add_45/Add", "op": "_FusedConv2D", "input": ["model_13/tf.math.multiply_143/Mul", "model_13/tf.nn.convolution_33/convolution/filter", "model_13/tf.math.add_45/Add/y"], "device": "/device:CPU:0", "attr": {"num_host_args": {"i": "0"}, "data_format": {"s": "TkhXQw=="}, "filter_format": {"s": "SFdJTw=="}, "strides": {"list": {"i": ["1", "1", "1", "1"]}}, "num_args": {"i": "1"}, "fused_ops": {"list": {"s": ["Qmlhc0FkZA=="]}}, "TArgs": {"list": {"type": ["DT_FLOAT"]}}, "padding": {"s": "U0FNRQ=="}, "use_cudnn_on_gpu": {"b": true}, "leakyrelu_alpha": {"f": 0.2}, "epsilon": {"f": 0.0}, "T": {"type": "DT_FLOAT"}, "explicit_paddings": {"list": {}}, "dilations": {"list": {"i": ["1", "1", "1", "1"]}}}}, {"name": "model_13/tf.math.sigmoid_33/Sigmoid", "op": "Sigmoid", "input": ["model_13/tf.math.add_45/Add"], "attr": {"T": {"type": "DT_FLOAT"}}}, {"name": "model_13/tf.math.multiply_147/Mul", "op": "Mul", "input": ["model_13/tf.math.add_45/Add", "model_13/tf.math.sigmoid_33/Sigmoid"], "attr": {"T": {"type": "DT_FLOAT"}}}, {"name": "model_13/tf.concat_8/concat", "op": "ConcatV2", "input": ["model_13/tf.strided_slice_10/StridedSlice", "model_13/tf.strided_slice_11/StridedSlice", "model_13/tf.math.multiply_147/Mul", "model_13/tf.concat_8/concat/axis"], "attr": {"N": {"i": "3"}, "T": {"type": "DT_FLOAT"}, "Tidx": {"type": "DT_INT32"}}}, {"name": "model_13/tf.math.add_46/Add", "op": "_FusedConv2D", "input": ["model_13/tf.concat_8/concat", "model_13/tf.nn.convolution_34/convolution/filter", "model_13/tf.math.add_46/Add/y"], "device": "/device:CPU:0", "attr": {"num_host_args": {"i": "0"}, "data_format": {"s": "TkhXQw=="}, "filter_format": {"s": "SFdJTw=="}, "strides": {"list": {"i": ["1", "1", "1", "1"]}}, "num_args": {"i": "1"}, "fused_ops": {"list": {"s": ["Qmlhc0FkZA=="]}}, "TArgs": {"list": {"type": ["DT_FLOAT"]}}, "padding": {"s": "U0FNRQ=="}, "use_cudnn_on_gpu": {"b": true}, "leakyrelu_alpha": {"f": 0.2}, "epsilon": {"f": 0.0}, "T": {"type": "DT_FLOAT"}, "explicit_paddings": {"list": {}}, "dilations": {"list": {"i": ["1", "1", "1", "1"]}}}}, {"name": "model_13/tf.math.sigmoid_34/Sigmoid", "op": "Sigmoid", "input": ["model_13/tf.math.add_46/Add"], "attr": {"T": {"type": "DT_FLOAT"}}}, {"name": "model_13/tf.math.multiply_151/Mul", "op": "Mul", "input": ["model_13/tf.math.add_46/Add", "model_13/tf.math.sigmoid_34/Sigmoid"], "attr": {"T": {"type": "DT_FLOAT"}}}, {"name": "model_13/tf.math.add_48/Add", "op": "_FusedConv2D", "input": ["model_13/tf.math.multiply_151/Mul", "model_13/tf.nn.convolution_36/convolution/filter", "model_13/tf.math.add_48/Add/y"], "device": "/device:CPU:0", "attr": {"num_host_args": {"i": "0"}, "data_format": {"s": "TkhXQw=="}, "filter_format": {"s": "SFdJTw=="}, "fused_ops": {"list": {"s": ["Qmlhc0FkZA=="]}}, "num_args": {"i": "1"}, "strides": {"list": {"i": ["1", "1", "1", "1"]}}, "TArgs": {"list": {"type": ["DT_FLOAT"]}}, "padding": {"s": "U0FNRQ=="}, "use_cudnn_on_gpu": {"b": true}, "leakyrelu_alpha": {"f": 0.2}, "epsilon": {"f": 0.0}, "T": {"type": "DT_FLOAT"}, "explicit_paddings": {"list": {}}, "dilations": {"list": {"i": ["1", "1", "1", "1"]}}}}, {"name": "model_13/tf.math.add_49/Add", "op": "_FusedConv2D", "input": ["model_13/tf.math.multiply_151/Mul", "model_13/tf.nn.convolution_37/convolution/filter", "model_13/tf.math.add_49/Add/y"], "device": "/device:CPU:0", "attr": {"num_host_args": {"i": "0"}, "data_format": {"s": "TkhXQw=="}, "filter_format": {"s": "SFdJTw=="}, "strides": {"list": {"i": ["1", "1", "1", "1"]}}, "num_args": {"i": "1"}, "fused_ops": {"list": {"s": ["Qmlhc0FkZA=="]}}, "TArgs": {"list": {"type": ["DT_FLOAT"]}}, "padding": {"s": "U0FNRQ=="}, "use_cudnn_on_gpu": {"b": true}, "leakyrelu_alpha": {"f": 0.2}, "epsilon": {"f": 0.0}, "T": {"type": "DT_FLOAT"}, "explicit_paddings": {"list": {}}, "dilations": {"list": {"i": ["1", "1", "1", "1"]}}}}, {"name": "model_13/tf.compat.v1.pad_5/Pad", "op": "Pad", "input": ["model_13/tf.math.multiply_151/Mul", "model_13/tf.compat.v1.pad_5/Pad/paddings"], "attr": {"Tpaddings": {"type": "DT_INT32"}, "T": {"type": "DT_FLOAT"}}}, {"name": "model_13/tf.math.sigmoid_36/Sigmoid", "op": "Sigmoid", "input": ["model_13/tf.math.add_48/Add"], "attr": {"T": {"type": "DT_FLOAT"}}}, {"name": "model_13/tf.math.sigmoid_37/Sigmoid", "op": "Sigmoid", "input": ["model_13/tf.math.add_49/Add"], "attr": {"T": {"type": "DT_FLOAT"}}}, {"name": "model_13/tf.math.add_47/Add", "op": "_FusedConv2D", "input": ["model_13/tf.compat.v1.pad_5/Pad", "model_13/tf.nn.convolution_35/convolution/filter", "model_13/tf.math.add_47/Add/y"], "device": "/device:CPU:0", "attr": {"num_host_args": {"i": "0"}, "data_format": {"s": "TkhXQw=="}, "filter_format": {"s": "SFdJTw=="}, "strides": {"list": {"i": ["1", "2", "2", "1"]}}, "num_args": {"i": "1"}, "fused_ops": {"list": {"s": ["Qmlhc0FkZA=="]}}, "TArgs": {"list": {"type": ["DT_FLOAT"]}}, "padding": {"s": "VkFMSUQ="}, "use_cudnn_on_gpu": {"b": true}, "leakyrelu_alpha": {"f": 0.2}, "epsilon": {"f": 0.0}, "T": {"type": "DT_FLOAT"}, "explicit_paddings": {"list": {}}, "dilations": {"list": {"i": ["1", "1", "1", "1"]}}}}, {"name": "model_13/tf.math.multiply_159/Mul", "op": "Mul", "input": ["model_13/tf.math.add_48/Add", "model_13/tf.math.sigmoid_36/Sigmoid"], "attr": {"T": {"type": "DT_FLOAT"}}}, {"name": "model_13/tf.math.multiply_163/Mul", "op": "Mul", "input": ["model_13/tf.math.add_49/Add", "model_13/tf.math.sigmoid_37/Sigmoid"], "attr": {"T": {"type": "DT_FLOAT"}}}, {"name": "model_13/tf.math.sigmoid_35/Sigmoid", "op": "Sigmoid", "input": ["model_13/tf.math.add_47/Add"], "attr": {"T": {"type": "DT_FLOAT"}}}, {"name": "model_13/tf.math.add_50/Add", "op": "_FusedConv2D", "input": ["model_13/tf.math.multiply_159/Mul", "model_13/tf.nn.convolution_38/convolution/filter", "model_13/tf.math.add_50/Add/y"], "device": "/device:CPU:0", "attr": {"num_host_args": {"i": "0"}, "data_format": {"s": "TkhXQw=="}, "filter_format": {"s": "SFdJTw=="}, "fused_ops": {"list": {"s": ["Qmlhc0FkZA=="]}}, "num_args": {"i": "1"}, "strides": {"list": {"i": ["1", "1", "1", "1"]}}, "TArgs": {"list": {"type": ["DT_FLOAT"]}}, "padding": {"s": "U0FNRQ=="}, "use_cudnn_on_gpu": {"b": true}, "leakyrelu_alpha": {"f": 0.2}, "epsilon": {"f": 0.0}, "T": {"type": "DT_FLOAT"}, "explicit_paddings": {"list": {}}, "dilations": {"list": {"i": ["1", "1", "1", "1"]}}}}, {"name": "model_13/tf.math.add_51/Add", "op": "_FusedConv2D", "input": ["model_13/tf.math.multiply_163/Mul", "model_13/tf.nn.convolution_39/convolution/filter", "model_13/tf.math.add_51/Add/y"], "device": "/device:CPU:0", "attr": {"num_host_args": {"i": "0"}, "data_format": {"s": "TkhXQw=="}, "filter_format": {"s": "SFdJTw=="}, "fused_ops": {"list": {"s": ["Qmlhc0FkZA=="]}}, "num_args": {"i": "1"}, "strides": {"list": {"i": ["1", "1", "1", "1"]}}, "TArgs": {"list": {"type": ["DT_FLOAT"]}}, "padding": {"s": "U0FNRQ=="}, "use_cudnn_on_gpu": {"b": true}, "leakyrelu_alpha": {"f": 0.2}, "epsilon": {"f": 0.0}, "T": {"type": "DT_FLOAT"}, "explicit_paddings": {"list": {}}, "dilations": {"list": {"i": ["1", "1", "1", "1"]}}}}, {"name": "model_13/tf.math.multiply_155/Mul", "op": "Mul", "input": ["model_13/tf.math.add_47/Add", "model_13/tf.math.sigmoid_35/Sigmoid"], "attr": {"T": {"type": "DT_FLOAT"}}}, {"name": "model_13/tf.math.sigmoid_38/Sigmoid", "op": "Sigmoid", "input": ["model_13/tf.math.add_50/Add"], "attr": {"T": {"type": "DT_FLOAT"}}}, {"name": "model_13/tf.math.sigmoid_39/Sigmoid", "op": "Sigmoid", "input": ["model_13/tf.math.add_51/Add"], "attr": {"T": {"type": "DT_FLOAT"}}}, {"name": "model_13/tf.concat_9/concat", "op": "ConcatV2", "input": ["model_13/tf.math.multiply_155/Mul", "model_13/tf.math.multiply_135/Mul", "model_13/tf.concat_9/concat/axis"], "attr": {"N": {"i": "2"}, "T": {"type": "DT_FLOAT"}, "Tidx": {"type": "DT_INT32"}}}, {"name": "model_13/tf.math.multiply_167/Mul", "op": "Mul", "input": ["model_13/tf.math.add_50/Add", "model_13/tf.math.sigmoid_38/Sigmoid"], "attr": {"T": {"type": "DT_FLOAT"}}}, {"name": "model_13/tf.math.multiply_171/Mul", "op": "Mul", "input": ["model_13/tf.math.add_51/Add", "model_13/tf.math.sigmoid_39/Sigmoid"], "attr": {"T": {"type": "DT_FLOAT"}}}, {"name": "model_13/tf.math.add_52/Add", "op": "_FusedConv2D", "input": ["model_13/tf.concat_9/concat", "model_13/tf.nn.convolution_40/convolution/filter", "model_13/tf.math.add_52/Add/y"], "device": "/device:CPU:0", "attr": {"num_host_args": {"i": "0"}, "data_format": {"s": "TkhXQw=="}, "filter_format": {"s": "SFdJTw=="}, "fused_ops": {"list": {"s": ["Qmlhc0FkZA=="]}}, "num_args": {"i": "1"}, "strides": {"list": {"i": ["1", "1", "1", "1"]}}, "TArgs": {"list": {"type": ["DT_FLOAT"]}}, "padding": {"s": "U0FNRQ=="}, "use_cudnn_on_gpu": {"b": true}, "leakyrelu_alpha": {"f": 0.2}, "epsilon": {"f": 0.0}, "T": {"type": "DT_FLOAT"}, "explicit_paddings": {"list": {}}, "dilations": {"list": {"i": ["1", "1", "1", "1"]}}}}, {"name": "model_13/tf.math.add_53/Add", "op": "_FusedConv2D", "input": ["model_13/tf.math.multiply_167/Mul", "model_13/tf.nn.convolution_41/convolution/filter", "model_13/tf.math.add_53/Add/y"], "device": "/device:CPU:0", "attr": {"num_host_args": {"i": "0"}, "data_format": {"s": "TkhXQw=="}, "filter_format": {"s": "SFdJTw=="}, "fused_ops": {"list": {"s": ["Qmlhc0FkZA=="]}}, "num_args": {"i": "1"}, "strides": {"list": {"i": ["1", "1", "1", "1"]}}, "TArgs": {"list": {"type": ["DT_FLOAT"]}}, "padding": {"s": "U0FNRQ=="}, "use_cudnn_on_gpu": {"b": true}, "leakyrelu_alpha": {"f": 0.2}, "epsilon": {"f": 0.0}, "T": {"type": "DT_FLOAT"}, "explicit_paddings": {"list": {}}, "dilations": {"list": {"i": ["1", "1", "1", "1"]}}}}, {"name": "model_13/tf.math.add_54/Add", "op": "_FusedConv2D", "input": ["model_13/tf.math.multiply_171/Mul", "model_13/tf.nn.convolution_42/convolution/filter", "model_13/tf.math.add_54/Add/y"], "device": "/device:CPU:0", "attr": {"num_host_args": {"i": "0"}, "data_format": {"s": "TkhXQw=="}, "filter_format": {"s": "SFdJTw=="}, "strides": {"list": {"i": ["1", "1", "1", "1"]}}, "num_args": {"i": "1"}, "fused_ops": {"list": {"s": ["Qmlhc0FkZA=="]}}, "TArgs": {"list": {"type": ["DT_FLOAT"]}}, "padding": {"s": "U0FNRQ=="}, "use_cudnn_on_gpu": {"b": true}, "leakyrelu_alpha": {"f": 0.2}, "epsilon": {"f": 0.0}, "T": {"type": "DT_FLOAT"}, "explicit_paddings": {"list": {}}, "dilations": {"list": {"i": ["1", "1", "1", "1"]}}}}, {"name": "model_13/tf.math.sigmoid_40/Sigmoid", "op": "Sigmoid", "input": ["model_13/tf.math.add_52/Add"], "attr": {"T": {"type": "DT_FLOAT"}}}, {"name": "model_13/tf.concat_10/concat", "op": "ConcatV2", "input": ["model_13/tf.math.add_53/Add", "model_13/tf.math.add_54/Add", "model_13/tf.concat_10/concat/axis"], "attr": {"N": {"i": "2"}, "Tidx": {"type": "DT_INT32"}, "T": {"type": "DT_FLOAT"}}}, {"name": "model_13/tf.math.multiply_175/Mul", "op": "Mul", "input": ["model_13/tf.math.add_52/Add", "model_13/tf.math.sigmoid_40/Sigmoid"], "attr": {"T": {"type": "DT_FLOAT"}}}, {"name": "model_13/tf.compat.v1.transpose_49/transpose", "op": "Transpose", "input": ["model_13/tf.concat_10/concat", "model_13/tf.compat.v1.transpose_49/transpose/perm"], "attr": {"Tperm": {"type": "DT_INT32"}, "T": {"type": "DT_FLOAT"}}}, {"name": "model_13/tf.strided_slice_12/StridedSlice", "op": "StridedSlice", "input": ["model_13/tf.math.multiply_175/Mul", "model_13/tf.strided_slice_12/ones_like/tensor", "model_13/tf.strided_slice_12/StridedSlice/end", "model_13/tf.strided_slice_12/ones_like"], "attr": {"shrink_axis_mask": {"i": "0"}, "new_axis_mask": {"i": "0"}, "Index": {"type": "DT_INT64"}, "begin_mask": {"i": "15"}, "end_mask": {"i": "7"}, "T": {"type": "DT_FLOAT"}, "ellipsis_mask": {"i": "0"}}}, {"name": "model_13/tf.strided_slice_13/StridedSlice", "op": "StridedSlice", "input": ["model_13/tf.math.multiply_175/Mul", "model_13/tf.strided_slice_13/ones_like/tensor", "model_13/tf.strided_slice_13/StridedSlice/end", "model_13/tf.strided_slice_13/ones_like"], "attr": {"shrink_axis_mask": {"i": "0"}, "Index": {"type": "DT_INT64"}, "new_axis_mask": {"i": "0"}, "begin_mask": {"i": "7"}, "T": {"type": "DT_FLOAT"}, "end_mask": {"i": "7"}, "ellipsis_mask": {"i": "0"}}}, {"name": "model_13/tf.reshape_2/Reshape", "op": "Reshape", "input": ["model_13/tf.compat.v1.transpose_49/transpose", "model_13/tf.reshape_2/Reshape/shape"], "attr": {"T": {"type": "DT_FLOAT"}, "Tshape": {"type": "DT_INT32"}}}, {"name": "model_13/tf.math.add_55/Add", "op": "_FusedConv2D", "input": ["model_13/tf.strided_slice_13/StridedSlice", "model_13/tf.nn.convolution_43/convolution/filter", "model_13/tf.math.add_55/Add/y"], "device": "/device:CPU:0", "attr": {"num_host_args": {"i": "0"}, "data_format": {"s": "TkhXQw=="}, "filter_format": {"s": "SFdJTw=="}, "strides": {"list": {"i": ["1", "1", "1", "1"]}}, "num_args": {"i": "1"}, "fused_ops": {"list": {"s": ["Qmlhc0FkZA=="]}}, "TArgs": {"list": {"type": ["DT_FLOAT"]}}, "padding": {"s": "U0FNRQ=="}, "use_cudnn_on_gpu": {"b": true}, "leakyrelu_alpha": {"f": 0.2}, "epsilon": {"f": 0.0}, "T": {"type": "DT_FLOAT"}, "explicit_paddings": {"list": {}}, "dilations": {"list": {"i": ["1", "1", "1", "1"]}}}}, {"name": "model_13/tf.math.sigmoid_41/Sigmoid", "op": "Sigmoid", "input": ["model_13/tf.math.add_55/Add"], "attr": {"T": {"type": "DT_FLOAT"}}}, {"name": "model_13/tf.math.multiply_179/Mul", "op": "Mul", "input": ["model_13/tf.math.add_55/Add", "model_13/tf.math.sigmoid_41/Sigmoid"], "attr": {"T": {"type": "DT_FLOAT"}}}, {"name": "model_13/tf.math.add_56/Add", "op": "_FusedConv2D", "input": ["model_13/tf.math.multiply_179/Mul", "model_13/tf.nn.convolution_44/convolution/filter", "model_13/tf.math.add_56/Add/y"], "device": "/device:CPU:0", "attr": {"num_host_args": {"i": "0"}, "data_format": {"s": "TkhXQw=="}, "filter_format": {"s": "SFdJTw=="}, "fused_ops": {"list": {"s": ["Qmlhc0FkZA=="]}}, "num_args": {"i": "1"}, "strides": {"list": {"i": ["1", "1", "1", "1"]}}, "TArgs": {"list": {"type": ["DT_FLOAT"]}}, "padding": {"s": "U0FNRQ=="}, "use_cudnn_on_gpu": {"b": true}, "leakyrelu_alpha": {"f": 0.2}, "epsilon": {"f": 0.0}, "T": {"type": "DT_FLOAT"}, "explicit_paddings": {"list": {}}, "dilations": {"list": {"i": ["1", "1", "1", "1"]}}}}, {"name": "model_13/tf.math.sigmoid_42/Sigmoid", "op": "Sigmoid", "input": ["model_13/tf.math.add_56/Add"], "attr": {"T": {"type": "DT_FLOAT"}}}, {"name": "model_13/tf.math.multiply_183/Mul", "op": "Mul", "input": ["model_13/tf.math.add_56/Add", "model_13/tf.math.sigmoid_42/Sigmoid"], "attr": {"T": {"type": "DT_FLOAT"}}}, {"name": "model_13/tf.concat_11/concat", "op": "ConcatV2", "input": ["model_13/tf.strided_slice_12/StridedSlice", "model_13/tf.strided_slice_13/StridedSlice", "model_13/tf.math.multiply_183/Mul", "model_13/tf.concat_11/concat/axis"], "attr": {"N": {"i": "3"}, "T": {"type": "DT_FLOAT"}, "Tidx": {"type": "DT_INT32"}}}, {"name": "model_13/tf.math.add_57/Add", "op": "_FusedConv2D", "input": ["model_13/tf.concat_11/concat", "model_13/tf.nn.convolution_45/convolution/filter", "model_13/tf.math.add_57/Add/y"], "device": "/device:CPU:0", "attr": {"num_host_args": {"i": "0"}, "data_format": {"s": "TkhXQw=="}, "filter_format": {"s": "SFdJTw=="}, "strides": {"list": {"i": ["1", "1", "1", "1"]}}, "num_args": {"i": "1"}, "fused_ops": {"list": {"s": ["Qmlhc0FkZA=="]}}, "TArgs": {"list": {"type": ["DT_FLOAT"]}}, "padding": {"s": "U0FNRQ=="}, "use_cudnn_on_gpu": {"b": true}, "leakyrelu_alpha": {"f": 0.2}, "epsilon": {"f": 0.0}, "T": {"type": "DT_FLOAT"}, "explicit_paddings": {"list": {}}, "dilations": {"list": {"i": ["1", "1", "1", "1"]}}}}, {"name": "model_13/tf.math.sigmoid_43/Sigmoid", "op": "Sigmoid", "input": ["model_13/tf.math.add_57/Add"], "attr": {"T": {"type": "DT_FLOAT"}}}, {"name": "model_13/tf.math.multiply_187/Mul", "op": "Mul", "input": ["model_13/tf.math.add_57/Add", "model_13/tf.math.sigmoid_43/Sigmoid"], "attr": {"T": {"type": "DT_FLOAT"}}}, {"name": "model_13/tf.math.add_59/Add", "op": "_FusedConv2D", "input": ["model_13/tf.math.multiply_187/Mul", "model_13/tf.nn.convolution_47/convolution/filter", "model_13/tf.math.add_59/Add/y"], "device": "/device:CPU:0", "attr": {"num_host_args": {"i": "0"}, "data_format": {"s": "TkhXQw=="}, "filter_format": {"s": "SFdJTw=="}, "strides": {"list": {"i": ["1", "1", "1", "1"]}}, "num_args": {"i": "1"}, "fused_ops": {"list": {"s": ["Qmlhc0FkZA=="]}}, "TArgs": {"list": {"type": ["DT_FLOAT"]}}, "padding": {"s": "U0FNRQ=="}, "use_cudnn_on_gpu": {"b": true}, "leakyrelu_alpha": {"f": 0.2}, "epsilon": {"f": 0.0}, "T": {"type": "DT_FLOAT"}, "explicit_paddings": {"list": {}}, "dilations": {"list": {"i": ["1", "1", "1", "1"]}}}}, {"name": "model_13/tf.math.add_60/Add", "op": "_FusedConv2D", "input": ["model_13/tf.math.multiply_187/Mul", "model_13/tf.nn.convolution_48/convolution/filter", "model_13/tf.math.add_60/Add/y"], "device": "/device:CPU:0", "attr": {"num_host_args": {"i": "0"}, "data_format": {"s": "TkhXQw=="}, "filter_format": {"s": "SFdJTw=="}, "strides": {"list": {"i": ["1", "1", "1", "1"]}}, "num_args": {"i": "1"}, "fused_ops": {"list": {"s": ["Qmlhc0FkZA=="]}}, "TArgs": {"list": {"type": ["DT_FLOAT"]}}, "padding": {"s": "U0FNRQ=="}, "use_cudnn_on_gpu": {"b": true}, "leakyrelu_alpha": {"f": 0.2}, "epsilon": {"f": 0.0}, "T": {"type": "DT_FLOAT"}, "explicit_paddings": {"list": {}}, "dilations": {"list": {"i": ["1", "1", "1", "1"]}}}}, {"name": "model_13/tf.compat.v1.pad_6/Pad", "op": "Pad", "input": ["model_13/tf.math.multiply_187/Mul", "model_13/tf.compat.v1.pad_6/Pad/paddings"], "attr": {"Tpaddings": {"type": "DT_INT32"}, "T": {"type": "DT_FLOAT"}}}, {"name": "model_13/tf.math.sigmoid_45/Sigmoid", "op": "Sigmoid", "input": ["model_13/tf.math.add_59/Add"], "attr": {"T": {"type": "DT_FLOAT"}}}, {"name": "model_13/tf.math.sigmoid_46/Sigmoid", "op": "Sigmoid", "input": ["model_13/tf.math.add_60/Add"], "attr": {"T": {"type": "DT_FLOAT"}}}, {"name": "model_13/tf.math.add_58/Add", "op": "_FusedConv2D", "input": ["model_13/tf.compat.v1.pad_6/Pad", "model_13/tf.nn.convolution_46/convolution/filter", "model_13/tf.math.add_58/Add/y"], "device": "/device:CPU:0", "attr": {"num_host_args": {"i": "0"}, "data_format": {"s": "TkhXQw=="}, "filter_format": {"s": "SFdJTw=="}, "strides": {"list": {"i": ["1", "2", "2", "1"]}}, "num_args": {"i": "1"}, "fused_ops": {"list": {"s": ["Qmlhc0FkZA=="]}}, "TArgs": {"list": {"type": ["DT_FLOAT"]}}, "padding": {"s": "VkFMSUQ="}, "use_cudnn_on_gpu": {"b": true}, "leakyrelu_alpha": {"f": 0.2}, "epsilon": {"f": 0.0}, "T": {"type": "DT_FLOAT"}, "explicit_paddings": {"list": {}}, "dilations": {"list": {"i": ["1", "1", "1", "1"]}}}}, {"name": "model_13/tf.math.multiply_195/Mul", "op": "Mul", "input": ["model_13/tf.math.add_59/Add", "model_13/tf.math.sigmoid_45/Sigmoid"], "attr": {"T": {"type": "DT_FLOAT"}}}, {"name": "model_13/tf.math.multiply_199/Mul", "op": "Mul", "input": ["model_13/tf.math.add_60/Add", "model_13/tf.math.sigmoid_46/Sigmoid"], "attr": {"T": {"type": "DT_FLOAT"}}}, {"name": "model_13/tf.math.sigmoid_44/Sigmoid", "op": "Sigmoid", "input": ["model_13/tf.math.add_58/Add"], "attr": {"T": {"type": "DT_FLOAT"}}}, {"name": "model_13/tf.math.add_61/Add", "op": "_FusedConv2D", "input": ["model_13/tf.math.multiply_195/Mul", "model_13/tf.nn.convolution_49/convolution/filter", "model_13/tf.math.add_61/Add/y"], "device": "/device:CPU:0", "attr": {"num_host_args": {"i": "0"}, "data_format": {"s": "TkhXQw=="}, "filter_format": {"s": "SFdJTw=="}, "strides": {"list": {"i": ["1", "1", "1", "1"]}}, "num_args": {"i": "1"}, "fused_ops": {"list": {"s": ["Qmlhc0FkZA=="]}}, "TArgs": {"list": {"type": ["DT_FLOAT"]}}, "padding": {"s": "U0FNRQ=="}, "use_cudnn_on_gpu": {"b": true}, "leakyrelu_alpha": {"f": 0.2}, "epsilon": {"f": 0.0}, "T": {"type": "DT_FLOAT"}, "explicit_paddings": {"list": {}}, "dilations": {"list": {"i": ["1", "1", "1", "1"]}}}}, {"name": "model_13/tf.math.add_62/Add", "op": "_FusedConv2D", "input": ["model_13/tf.math.multiply_199/Mul", "model_13/tf.nn.convolution_50/convolution/filter", "model_13/tf.math.add_62/Add/y"], "device": "/device:CPU:0", "attr": {"num_host_args": {"i": "0"}, "data_format": {"s": "TkhXQw=="}, "filter_format": {"s": "SFdJTw=="}, "strides": {"list": {"i": ["1", "1", "1", "1"]}}, "num_args": {"i": "1"}, "fused_ops": {"list": {"s": ["Qmlhc0FkZA=="]}}, "TArgs": {"list": {"type": ["DT_FLOAT"]}}, "padding": {"s": "U0FNRQ=="}, "use_cudnn_on_gpu": {"b": true}, "leakyrelu_alpha": {"f": 0.2}, "epsilon": {"f": 0.0}, "T": {"type": "DT_FLOAT"}, "explicit_paddings": {"list": {}}, "dilations": {"list": {"i": ["1", "1", "1", "1"]}}}}, {"name": "model_13/tf.math.multiply_191/Mul", "op": "Mul", "input": ["model_13/tf.math.add_58/Add", "model_13/tf.math.sigmoid_44/Sigmoid"], "attr": {"T": {"type": "DT_FLOAT"}}}, {"name": "model_13/tf.math.sigmoid_47/Sigmoid", "op": "Sigmoid", "input": ["model_13/tf.math.add_61/Add"], "attr": {"T": {"type": "DT_FLOAT"}}}, {"name": "model_13/tf.math.sigmoid_48/Sigmoid", "op": "Sigmoid", "input": ["model_13/tf.math.add_62/Add"], "attr": {"T": {"type": "DT_FLOAT"}}}, {"name": "model_13/tf.concat_12/concat", "op": "ConcatV2", "input": ["model_13/tf.math.multiply_191/Mul", "model_13/tf.math.multiply_119/Mul", "model_13/tf.concat_12/concat/axis"], "attr": {"N": {"i": "2"}, "T": {"type": "DT_FLOAT"}, "Tidx": {"type": "DT_INT32"}}}, {"name": "model_13/tf.math.multiply_203/Mul", "op": "Mul", "input": ["model_13/tf.math.add_61/Add", "model_13/tf.math.sigmoid_47/Sigmoid"], "attr": {"T": {"type": "DT_FLOAT"}}}, {"name": "model_13/tf.math.multiply_207/Mul", "op": "Mul", "input": ["model_13/tf.math.add_62/Add", "model_13/tf.math.sigmoid_48/Sigmoid"], "attr": {"T": {"type": "DT_FLOAT"}}}, {"name": "model_13/tf.math.add_63/Add", "op": "_FusedConv2D", "input": ["model_13/tf.concat_12/concat", "model_13/tf.nn.convolution_51/convolution/filter", "model_13/tf.math.add_63/Add/y"], "device": "/device:CPU:0", "attr": {"num_host_args": {"i": "0"}, "data_format": {"s": "TkhXQw=="}, "filter_format": {"s": "SFdJTw=="}, "fused_ops": {"list": {"s": ["Qmlhc0FkZA=="]}}, "num_args": {"i": "1"}, "strides": {"list": {"i": ["1", "1", "1", "1"]}}, "TArgs": {"list": {"type": ["DT_FLOAT"]}}, "padding": {"s": "U0FNRQ=="}, "use_cudnn_on_gpu": {"b": true}, "leakyrelu_alpha": {"f": 0.2}, "epsilon": {"f": 0.0}, "T": {"type": "DT_FLOAT"}, "explicit_paddings": {"list": {}}, "dilations": {"list": {"i": ["1", "1", "1", "1"]}}}}, {"name": "model_13/tf.math.add_64/Add", "op": "_FusedConv2D", "input": ["model_13/tf.math.multiply_203/Mul", "model_13/tf.nn.convolution_52/convolution/filter", "model_13/tf.math.add_64/Add/y"], "device": "/device:CPU:0", "attr": {"num_host_args": {"i": "0"}, "data_format": {"s": "TkhXQw=="}, "filter_format": {"s": "SFdJTw=="}, "fused_ops": {"list": {"s": ["Qmlhc0FkZA=="]}}, "num_args": {"i": "1"}, "strides": {"list": {"i": ["1", "1", "1", "1"]}}, "TArgs": {"list": {"type": ["DT_FLOAT"]}}, "padding": {"s": "U0FNRQ=="}, "use_cudnn_on_gpu": {"b": true}, "leakyrelu_alpha": {"f": 0.2}, "epsilon": {"f": 0.0}, "T": {"type": "DT_FLOAT"}, "explicit_paddings": {"list": {}}, "dilations": {"list": {"i": ["1", "1", "1", "1"]}}}}, {"name": "model_13/tf.math.add_65/Add", "op": "_FusedConv2D", "input": ["model_13/tf.math.multiply_207/Mul", "model_13/tf.nn.convolution_53/convolution/filter", "model_13/tf.math.add_65/Add/y"], "device": "/device:CPU:0", "attr": {"num_host_args": {"i": "0"}, "data_format": {"s": "TkhXQw=="}, "filter_format": {"s": "SFdJTw=="}, "fused_ops": {"list": {"s": ["Qmlhc0FkZA=="]}}, "num_args": {"i": "1"}, "strides": {"list": {"i": ["1", "1", "1", "1"]}}, "TArgs": {"list": {"type": ["DT_FLOAT"]}}, "padding": {"s": "U0FNRQ=="}, "use_cudnn_on_gpu": {"b": true}, "leakyrelu_alpha": {"f": 0.2}, "epsilon": {"f": 0.0}, "T": {"type": "DT_FLOAT"}, "explicit_paddings": {"list": {}}, "dilations": {"list": {"i": ["1", "1", "1", "1"]}}}}, {"name": "model_13/tf.math.sigmoid_49/Sigmoid", "op": "Sigmoid", "input": ["model_13/tf.math.add_63/Add"], "attr": {"T": {"type": "DT_FLOAT"}}}, {"name": "model_13/tf.concat_13/concat", "op": "ConcatV2", "input": ["model_13/tf.math.add_64/Add", "model_13/tf.math.add_65/Add", "model_13/tf.concat_13/concat/axis"], "attr": {"N": {"i": "2"}, "T": {"type": "DT_FLOAT"}, "Tidx": {"type": "DT_INT32"}}}, {"name": "model_13/tf.math.multiply_211/Mul", "op": "Mul", "input": ["model_13/tf.math.add_63/Add", "model_13/tf.math.sigmoid_49/Sigmoid"], "attr": {"T": {"type": "DT_FLOAT"}}}, {"name": "model_13/tf.compat.v1.transpose_63/transpose", "op": "Transpose", "input": ["model_13/tf.concat_13/concat", "model_13/tf.compat.v1.transpose_63/transpose/perm"], "attr": {"Tperm": {"type": "DT_INT32"}, "T": {"type": "DT_FLOAT"}}}, {"name": "model_13/tf.strided_slice_14/StridedSlice", "op": "StridedSlice", "input": ["model_13/tf.math.multiply_211/Mul", "model_13/tf.strided_slice_14/ones_like/tensor", "model_13/tf.strided_slice_14/StridedSlice/end", "model_13/tf.strided_slice_14/ones_like"], "attr": {"shrink_axis_mask": {"i": "0"}, "Index": {"type": "DT_INT64"}, "new_axis_mask": {"i": "0"}, "begin_mask": {"i": "15"}, "T": {"type": "DT_FLOAT"}, "end_mask": {"i": "7"}, "ellipsis_mask": {"i": "0"}}}, {"name": "model_13/tf.strided_slice_15/StridedSlice", "op": "StridedSlice", "input": ["model_13/tf.math.multiply_211/Mul", "model_13/tf.strided_slice_15/ones_like/tensor", "model_13/tf.strided_slice_15/StridedSlice/end", "model_13/tf.strided_slice_15/ones_like"], "attr": {"shrink_axis_mask": {"i": "0"}, "new_axis_mask": {"i": "0"}, "Index": {"type": "DT_INT64"}, "begin_mask": {"i": "7"}, "T": {"type": "DT_FLOAT"}, "end_mask": {"i": "7"}, "ellipsis_mask": {"i": "0"}}}, {"name": "model_13/tf.reshape_5/Reshape", "op": "Reshape", "input": ["model_13/tf.compat.v1.transpose_63/transpose", "model_13/tf.reshape_5/Reshape/shape"], "attr": {"T": {"type": "DT_FLOAT"}, "Tshape": {"type": "DT_INT32"}}}, {"name": "model_13/tf.math.add_66/Add", "op": "_FusedConv2D", "input": ["model_13/tf.strided_slice_15/StridedSlice", "model_13/tf.nn.convolution_54/convolution/filter", "model_13/tf.math.add_66/Add/y"], "device": "/device:CPU:0", "attr": {"num_host_args": {"i": "0"}, "data_format": {"s": "TkhXQw=="}, "filter_format": {"s": "SFdJTw=="}, "fused_ops": {"list": {"s": ["Qmlhc0FkZA=="]}}, "num_args": {"i": "1"}, "strides": {"list": {"i": ["1", "1", "1", "1"]}}, "TArgs": {"list": {"type": ["DT_FLOAT"]}}, "padding": {"s": "U0FNRQ=="}, "use_cudnn_on_gpu": {"b": true}, "leakyrelu_alpha": {"f": 0.2}, "epsilon": {"f": 0.0}, "T": {"type": "DT_FLOAT"}, "explicit_paddings": {"list": {}}, "dilations": {"list": {"i": ["1", "1", "1", "1"]}}}}, {"name": "model_13/tf.math.sigmoid_50/Sigmoid", "op": "Sigmoid", "input": ["model_13/tf.math.add_66/Add"], "attr": {"T": {"type": "DT_FLOAT"}}}, {"name": "model_13/tf.math.multiply_215/Mul", "op": "Mul", "input": ["model_13/tf.math.add_66/Add", "model_13/tf.math.sigmoid_50/Sigmoid"], "attr": {"T": {"type": "DT_FLOAT"}}}, {"name": "model_13/tf.math.add_67/Add", "op": "_FusedConv2D", "input": ["model_13/tf.math.multiply_215/Mul", "model_13/tf.nn.convolution_55/convolution/filter", "model_13/tf.math.add_67/Add/y"], "device": "/device:CPU:0", "attr": {"num_host_args": {"i": "0"}, "data_format": {"s": "TkhXQw=="}, "filter_format": {"s": "SFdJTw=="}, "strides": {"list": {"i": ["1", "1", "1", "1"]}}, "num_args": {"i": "1"}, "fused_ops": {"list": {"s": ["Qmlhc0FkZA=="]}}, "TArgs": {"list": {"type": ["DT_FLOAT"]}}, "padding": {"s": "U0FNRQ=="}, "use_cudnn_on_gpu": {"b": true}, "leakyrelu_alpha": {"f": 0.2}, "epsilon": {"f": 0.0}, "T": {"type": "DT_FLOAT"}, "explicit_paddings": {"list": {}}, "dilations": {"list": {"i": ["1", "1", "1", "1"]}}}}, {"name": "model_13/tf.math.sigmoid_51/Sigmoid", "op": "Sigmoid", "input": ["model_13/tf.math.add_67/Add"], "attr": {"T": {"type": "DT_FLOAT"}}}, {"name": "model_13/tf.math.multiply_219/Mul", "op": "Mul", "input": ["model_13/tf.math.add_67/Add", "model_13/tf.math.sigmoid_51/Sigmoid"], "attr": {"T": {"type": "DT_FLOAT"}}}, {"name": "model_13/tf.concat_14/concat", "op": "ConcatV2", "input": ["model_13/tf.strided_slice_14/StridedSlice", "model_13/tf.strided_slice_15/StridedSlice", "model_13/tf.math.multiply_219/Mul", "model_13/tf.concat_14/concat/axis"], "attr": {"N": {"i": "3"}, "T": {"type": "DT_FLOAT"}, "Tidx": {"type": "DT_INT32"}}}, {"name": "model_13/tf.math.add_68/Add", "op": "_FusedConv2D", "input": ["model_13/tf.concat_14/concat", "model_13/tf.nn.convolution_56/convolution/filter", "model_13/tf.math.add_68/Add/y"], "device": "/device:CPU:0", "attr": {"num_host_args": {"i": "0"}, "data_format": {"s": "TkhXQw=="}, "filter_format": {"s": "SFdJTw=="}, "fused_ops": {"list": {"s": ["Qmlhc0FkZA=="]}}, "num_args": {"i": "1"}, "strides": {"list": {"i": ["1", "1", "1", "1"]}}, "TArgs": {"list": {"type": ["DT_FLOAT"]}}, "padding": {"s": "U0FNRQ=="}, "use_cudnn_on_gpu": {"b": true}, "leakyrelu_alpha": {"f": 0.2}, "epsilon": {"f": 0.0}, "T": {"type": "DT_FLOAT"}, "explicit_paddings": {"list": {}}, "dilations": {"list": {"i": ["1", "1", "1", "1"]}}}}, {"name": "model_13/tf.math.sigmoid_52/Sigmoid", "op": "Sigmoid", "input": ["model_13/tf.math.add_68/Add"], "attr": {"T": {"type": "DT_FLOAT"}}}, {"name": "model_13/tf.math.multiply_223/Mul", "op": "Mul", "input": ["model_13/tf.math.add_68/Add", "model_13/tf.math.sigmoid_52/Sigmoid"], "attr": {"T": {"type": "DT_FLOAT"}}}, {"name": "model_13/tf.math.add_69/Add", "op": "_FusedConv2D", "input": ["model_13/tf.math.multiply_223/Mul", "model_13/tf.nn.convolution_57/convolution/filter", "model_13/tf.math.add_69/Add/y"], "device": "/device:CPU:0", "attr": {"num_host_args": {"i": "0"}, "data_format": {"s": "TkhXQw=="}, "filter_format": {"s": "SFdJTw=="}, "strides": {"list": {"i": ["1", "1", "1", "1"]}}, "num_args": {"i": "1"}, "fused_ops": {"list": {"s": ["Qmlhc0FkZA=="]}}, "TArgs": {"list": {"type": ["DT_FLOAT"]}}, "padding": {"s": "U0FNRQ=="}, "use_cudnn_on_gpu": {"b": true}, "leakyrelu_alpha": {"f": 0.2}, "epsilon": {"f": 0.0}, "T": {"type": "DT_FLOAT"}, "explicit_paddings": {"list": {}}, "dilations": {"list": {"i": ["1", "1", "1", "1"]}}}}, {"name": "model_13/tf.math.add_70/Add", "op": "_FusedConv2D", "input": ["model_13/tf.math.multiply_223/Mul", "model_13/tf.nn.convolution_58/convolution/filter", "model_13/tf.math.add_70/Add/y"], "device": "/device:CPU:0", "attr": {"num_host_args": {"i": "0"}, "data_format": {"s": "TkhXQw=="}, "filter_format": {"s": "SFdJTw=="}, "fused_ops": {"list": {"s": ["Qmlhc0FkZA=="]}}, "num_args": {"i": "1"}, "strides": {"list": {"i": ["1", "1", "1", "1"]}}, "TArgs": {"list": {"type": ["DT_FLOAT"]}}, "padding": {"s": "U0FNRQ=="}, "use_cudnn_on_gpu": {"b": true}, "leakyrelu_alpha": {"f": 0.2}, "epsilon": {"f": 0.0}, "T": {"type": "DT_FLOAT"}, "explicit_paddings": {"list": {}}, "dilations": {"list": {"i": ["1", "1", "1", "1"]}}}}, {"name": "model_13/tf.math.sigmoid_53/Sigmoid", "op": "Sigmoid", "input": ["model_13/tf.math.add_69/Add"], "attr": {"T": {"type": "DT_FLOAT"}}}, {"name": "model_13/tf.math.sigmoid_54/Sigmoid", "op": "Sigmoid", "input": ["model_13/tf.math.add_70/Add"], "attr": {"T": {"type": "DT_FLOAT"}}}, {"name": "model_13/tf.math.multiply_227/Mul", "op": "Mul", "input": ["model_13/tf.math.add_69/Add", "model_13/tf.math.sigmoid_53/Sigmoid"], "attr": {"T": {"type": "DT_FLOAT"}}}, {"name": "model_13/tf.math.multiply_231/Mul", "op": "Mul", "input": ["model_13/tf.math.add_70/Add", "model_13/tf.math.sigmoid_54/Sigmoid"], "attr": {"T": {"type": "DT_FLOAT"}}}, {"name": "model_13/tf.math.add_71/Add", "op": "_FusedConv2D", "input": ["model_13/tf.math.multiply_227/Mul", "model_13/tf.nn.convolution_59/convolution/filter", "model_13/tf.math.add_71/Add/y"], "device": "/device:CPU:0", "attr": {"num_host_args": {"i": "0"}, "data_format": {"s": "TkhXQw=="}, "filter_format": {"s": "SFdJTw=="}, "strides": {"list": {"i": ["1", "1", "1", "1"]}}, "num_args": {"i": "1"}, "fused_ops": {"list": {"s": ["Qmlhc0FkZA=="]}}, "TArgs": {"list": {"type": ["DT_FLOAT"]}}, "padding": {"s": "U0FNRQ=="}, "use_cudnn_on_gpu": {"b": true}, "leakyrelu_alpha": {"f": 0.2}, "epsilon": {"f": 0.0}, "T": {"type": "DT_FLOAT"}, "explicit_paddings": {"list": {}}, "dilations": {"list": {"i": ["1", "1", "1", "1"]}}}}, {"name": "model_13/tf.math.add_72/Add", "op": "_FusedConv2D", "input": ["model_13/tf.math.multiply_231/Mul", "model_13/tf.nn.convolution_60/convolution/filter", "model_13/tf.math.add_72/Add/y"], "device": "/device:CPU:0", "attr": {"num_host_args": {"i": "0"}, "data_format": {"s": "TkhXQw=="}, "filter_format": {"s": "SFdJTw=="}, "fused_ops": {"list": {"s": ["Qmlhc0FkZA=="]}}, "num_args": {"i": "1"}, "strides": {"list": {"i": ["1", "1", "1", "1"]}}, "TArgs": {"list": {"type": ["DT_FLOAT"]}}, "padding": {"s": "U0FNRQ=="}, "use_cudnn_on_gpu": {"b": true}, "leakyrelu_alpha": {"f": 0.2}, "epsilon": {"f": 0.0}, "T": {"type": "DT_FLOAT"}, "explicit_paddings": {"list": {}}, "dilations": {"list": {"i": ["1", "1", "1", "1"]}}}}, {"name": "model_13/tf.math.sigmoid_55/Sigmoid", "op": "Sigmoid", "input": ["model_13/tf.math.add_71/Add"], "attr": {"T": {"type": "DT_FLOAT"}}}, {"name": "model_13/tf.math.sigmoid_56/Sigmoid", "op": "Sigmoid", "input": ["model_13/tf.math.add_72/Add"], "attr": {"T": {"type": "DT_FLOAT"}}}, {"name": "model_13/tf.math.multiply_235/Mul", "op": "Mul", "input": ["model_13/tf.math.add_71/Add", "model_13/tf.math.sigmoid_55/Sigmoid"], "attr": {"T": {"type": "DT_FLOAT"}}}, {"name": "model_13/tf.math.multiply_239/Mul", "op": "Mul", "input": ["model_13/tf.math.add_72/Add", "model_13/tf.math.sigmoid_56/Sigmoid"], "attr": {"T": {"type": "DT_FLOAT"}}}, {"name": "model_13/tf.math.add_73/Add", "op": "_FusedConv2D", "input": ["model_13/tf.math.multiply_235/Mul", "model_13/tf.nn.convolution_61/convolution/filter", "model_13/tf.math.add_73/Add/y"], "device": "/device:CPU:0", "attr": {"num_host_args": {"i": "0"}, "data_format": {"s": "TkhXQw=="}, "filter_format": {"s": "SFdJTw=="}, "fused_ops": {"list": {"s": ["Qmlhc0FkZA=="]}}, "num_args": {"i": "1"}, "strides": {"list": {"i": ["1", "1", "1", "1"]}}, "TArgs": {"list": {"type": ["DT_FLOAT"]}}, "padding": {"s": "U0FNRQ=="}, "use_cudnn_on_gpu": {"b": true}, "leakyrelu_alpha": {"f": 0.2}, "epsilon": {"f": 0.0}, "T": {"type": "DT_FLOAT"}, "explicit_paddings": {"list": {}}, "dilations": {"list": {"i": ["1", "1", "1", "1"]}}}}, {"name": "model_13/tf.math.add_74/Add", "op": "_FusedConv2D", "input": ["model_13/tf.math.multiply_239/Mul", "model_13/tf.nn.convolution_62/convolution/filter", "model_13/tf.math.add_74/Add/y"], "device": "/device:CPU:0", "attr": {"num_host_args": {"i": "0"}, "data_format": {"s": "TkhXQw=="}, "filter_format": {"s": "SFdJTw=="}, "strides": {"list": {"i": ["1", "1", "1", "1"]}}, "num_args": {"i": "1"}, "fused_ops": {"list": {"s": ["Qmlhc0FkZA=="]}}, "TArgs": {"list": {"type": ["DT_FLOAT"]}}, "padding": {"s": "U0FNRQ=="}, "use_cudnn_on_gpu": {"b": true}, "leakyrelu_alpha": {"f": 0.2}, "epsilon": {"f": 0.0}, "T": {"type": "DT_FLOAT"}, "explicit_paddings": {"list": {}}, "dilations": {"list": {"i": ["1", "1", "1", "1"]}}}}, {"name": "model_13/tf.concat_15/concat", "op": "ConcatV2", "input": ["model_13/tf.math.add_73/Add", "model_13/tf.math.add_74/Add", "model_13/tf.concat_15/concat/axis"], "attr": {"N": {"i": "2"}, "Tidx": {"type": "DT_INT32"}, "T": {"type": "DT_FLOAT"}}}, {"name": "model_13/tf.compat.v1.transpose_75/transpose", "op": "Transpose", "input": ["model_13/tf.concat_15/concat", "model_13/tf.compat.v1.transpose_75/transpose/perm"], "attr": {"Tperm": {"type": "DT_INT32"}, "T": {"type": "DT_FLOAT"}}}, {"name": "model_13/tf.reshape_8/Reshape", "op": "Reshape", "input": ["model_13/tf.compat.v1.transpose_75/transpose", "model_13/tf.reshape_8/Reshape/shape"], "attr": {"T": {"type": "DT_FLOAT"}, "Tshape": {"type": "DT_INT32"}}}, {"name": "model_13/tf.concat_16/concat", "op": "ConcatV2", "input": ["model_13/tf.reshape_2/Reshape", "model_13/tf.reshape_5/Reshape", "model_13/tf.reshape_8/Reshape", "model_13/tf.concat_16/concat/axis"], "attr": {"N": {"i": "3"}, "Tidx": {"type": "DT_INT32"}, "T": {"type": "DT_FLOAT"}}}, {"name": "model_13/tf.strided_slice_17/StridedSlice", "op": "StridedSlice", "input": ["model_13/tf.concat_16/concat", "model_13/tf.strided_slice_17/StridedSlice/begin", "model_13/tf.strided_slice_17/StridedSlice/end", "model_13/tf.strided_slice_17/ones_like"], "attr": {"shrink_axis_mask": {"i": "0"}, "new_axis_mask": {"i": "0"}, "Index": {"type": "DT_INT32"}, "begin_mask": {"i": "5"}, "end_mask": {"i": "5"}, "T": {"type": "DT_FLOAT"}, "ellipsis_mask": {"i": "0"}}}, {"name": "model_13/tf.strided_slice_16/StridedSlice", "op": "StridedSlice", "input": ["model_13/tf.concat_16/concat", "model_13/tf.strided_slice_16/StridedSlice/begin", "model_13/tf.strided_slice_16/StridedSlice/end", "model_13/tf.strided_slice_16/ones_like"], "attr": {"shrink_axis_mask": {"i": "0"}, "Index": {"type": "DT_INT32"}, "new_axis_mask": {"i": "0"}, "begin_mask": {"i": "5"}, "T": {"type": "DT_FLOAT"}, "end_mask": {"i": "5"}, "ellipsis_mask": {"i": "0"}}}, {"name": "model_13/tf.math.sigmoid_57/Sigmoid", "op": "Sigmoid", "input": ["model_13/tf.strided_slice_17/StridedSlice"], "attr": {"T": {"type": "DT_FLOAT"}}}, {"name": "model_13/tf.reshape_11/Reshape", "op": "Reshape", "input": ["model_13/tf.strided_slice_16/StridedSlice", "model_13/tf.reshape_11/Reshape/shape"], "attr": {"T": {"type": "DT_FLOAT"}, "Tshape": {"type": "DT_INT32"}}}, {"name": "model_13/tf.compat.v1.transpose_82/transpose", "op": "Transpose", "input": ["model_13/tf.reshape_11/Reshape", "model_13/tf.compat.v1.transpose_82/transpose/perm"], "attr": {"Tperm": {"type": "DT_INT32"}, "T": {"type": "DT_FLOAT"}}}, {"name": "model_13/tf.compat.v1.transpose_83/transpose", "op": "Transpose", "input": ["model_13/tf.compat.v1.transpose_82/transpose", "model_13/tf.compat.v1.transpose_83/transpose/perm"], "attr": {"Tperm": {"type": "DT_INT32"}, "T": {"type": "DT_FLOAT"}}}, {"name": "model_13/tf.nn.softmax/wa/model.22/dfl/Softmax", "op": "Softmax", "input": ["model_13/tf.compat.v1.transpose_83/transpose"], "attr": {"T": {"type": "DT_FLOAT"}}}, {"name": "model_13/tf.nn.convolution_63/convolution", "op": "Conv2D", "input": ["model_13/tf.nn.softmax/wa/model.22/dfl/Softmax", "model_13/tf.nn.convolution_63/convolution/filter"], "device": "/device:CPU:0", "attr": {"padding": {"s": "U0FNRQ=="}, "data_format": {"s": "TkhXQw=="}, "strides": {"list": {"i": ["1", "1", "1", "1"]}}, "use_cudnn_on_gpu": {"b": true}, "T": {"type": "DT_FLOAT"}, "explicit_paddings": {"list": {}}, "dilations": {"list": {"i": ["1", "1", "1", "1"]}}}}, {"name": "model_13/tf.compat.v1.transpose_88/transpose", "op": "Transpose", "input": ["model_13/tf.nn.convolution_63/convolution", "model_13/tf.compat.v1.transpose_88/transpose/perm"], "attr": {"Tperm": {"type": "DT_INT32"}, "T": {"type": "DT_FLOAT"}}}, {"name": "model_13/tf.reshape_14/Reshape", "op": "Reshape", "input": ["model_13/tf.compat.v1.transpose_88/transpose", "model_13/tf.reshape_14/Reshape/shape"], "attr": {"T": {"type": "DT_FLOAT"}, "Tshape": {"type": "DT_INT32"}}}, {"name": "model_13/tf.strided_slice_19/StridedSlice", "op": "StridedSlice", "input": ["model_13/tf.reshape_14/Reshape", "model_13/tf.strided_slice_19/ones_like/tensor", "model_13/tf.strided_slice_19/StridedSlice/end", "model_13/tf.strided_slice_19/ones_like"], "attr": {"shrink_axis_mask": {"i": "0"}, "new_axis_mask": {"i": "0"}, "Index": {"type": "DT_INT64"}, "begin_mask": {"i": "5"}, "end_mask": {"i": "5"}, "T": {"type": "DT_FLOAT"}, "ellipsis_mask": {"i": "0"}}}, {"name": "model_13/tf.strided_slice_18/StridedSlice", "op": "StridedSlice", "input": ["model_13/tf.reshape_14/Reshape", "model_13/tf.strided_slice_18/ones_like/tensor", "model_13/tf.strided_slice_18/StridedSlice/end", "model_13/tf.strided_slice_18/ones_like"], "attr": {"shrink_axis_mask": {"i": "0"}, "new_axis_mask": {"i": "0"}, "Index": {"type": "DT_INT64"}, "begin_mask": {"i": "7"}, "end_mask": {"i": "5"}, "T": {"type": "DT_FLOAT"}, "ellipsis_mask": {"i": "0"}}}, {"name": "model_13/tf.math.add_75/Add", "op": "AddV2", "input": ["model_13/tf.strided_slice_19/StridedSlice", "model_13/tf.math.add_75/Add/y"], "attr": {"T": {"type": "DT_FLOAT"}}}, {"name": "model_13/tf.math.subtract/Sub", "op": "Sub", "input": ["model_13/24052", "model_13/tf.strided_slice_18/StridedSlice"], "attr": {"T": {"type": "DT_FLOAT"}}}, {"name": "model_13/tf.math.add_76/Add", "op": "AddV2", "input": ["model_13/tf.math.subtract/Sub", "model_13/tf.math.add_75/Add"], "attr": {"T": {"type": "DT_FLOAT"}}}, {"name": "model_13/tf.math.subtract_1/Sub", "op": "Sub", "input": ["model_13/tf.math.add_75/Add", "model_13/tf.math.subtract/Sub"], "attr": {"T": {"type": "DT_FLOAT"}}}, {"name": "model_13/tf.math.divide/truediv", "op": "Mul", "input": ["model_13/tf.math.add_76/Add", "ConstantFolding/model_13/tf.math.divide/truediv_recip"], "attr": {"T": {"type": "DT_FLOAT"}}}, {"name": "model_13/tf.concat_20/concat", "op": "ConcatV2", "input": ["model_13/tf.math.divide/truediv", "model_13/tf.math.subtract_1/Sub", "model_13/tf.concat_20/concat/axis"], "attr": {"N": {"i": "2"}, "T": {"type": "DT_FLOAT"}, "Tidx": {"type": "DT_INT32"}}}, {"name": "model_13/tf.math.multiply_252/Mul", "op": "Mul", "input": ["model_13/tf.concat_20/concat", "model_13/tf.math.multiply_252/Mul/y"], "attr": {"T": {"type": "DT_FLOAT"}}}, {"name": "model_13/output0/concat", "op": "ConcatV2", "input": ["model_13/tf.math.multiply_252/Mul", "model_13/tf.math.sigmoid_57/Sigmoid", "model_13/output0/concat/axis"], "attr": {"N": {"i": "2"}, "T": {"type": "DT_FLOAT"}, "Tidx": {"type": "DT_INT32"}}}, {"name": "Identity", "op": "Identity", "input": ["model_13/output0/concat"], "attr": {"T": {"type": "DT_FLOAT"}}}], "library": {}, "versions": {"producer": 2129}}, "weightsManifest": [{"paths": ["group1-shard1of1.bin"], "weights": [{"name": "ConstantFolding/model_13/tf.math.divide/truediv_recip", "shape": [], "dtype": "float32", "quantization": {"dtype": "uint8", "min": 0.5, "scale": 1.0, "original_dtype": "float32"}}, {"name": "model_13/tf.strided_slice_19/ones_like/tensor", "shape": [3], "dtype": "int32"}, {"name": "model_13/tf.strided_slice_19/StridedSlice/end", "shape": [3], "dtype": "int32"}, {"name": "model_13/tf.strided_slice_19/ones_like", "shape": [3], "dtype": "int32"}, {"name": "model_13/tf.math.add_75/Add/y", "shape": [1, 2, 13125], "dtype": "float32", "quantization": {"dtype": "uint8", "min": 0.5, "scale": 0.38823529411764707, "original_dtype": "float32"}}, {"name": "model_13/24052", "shape": [1, 2, 13125], "dtype": "float32", "quantization": {"dtype": "uint8", "min": 0.5, "scale": 0.38823529411764707, "original_dtype": "float32"}}, {"name": "model_13/tf.strided_slice_16/StridedSlice/begin", "shape": [3], "dtype": "int32"}, {"name": "model_13/tf.strided_slice_16/StridedSlice/end", "shape": [3], "dtype": "int32"}, {"name": "model_13/tf.strided_slice_16/ones_like", "shape": [3], "dtype": "int32"}, {"name": "model_13/tf.reshape_11/Reshape/shape", "shape": [4], "dtype": "int32"}, {"name": "model_13/tf.compat.v1.transpose_82/transpose/perm", "shape": [4], "dtype": "int32"}, {"name": "model_13/tf.compat.v1.transpose_83/transpose/perm", "shape": [4], "dtype": "int32"}, {"name": "model_13/tf.nn.convolution_63/convolution/filter", "shape": [1, 1, 16, 1], "dtype": "float32", "quantization": {"dtype": "uint8", "min": -0.0, "scale": 0.058823529411764705, "original_dtype": "float32"}}, {"name": "model_13/tf.compat.v1.transpose_88/transpose/perm", "shape": [4], "dtype": "int32"}, {"name": "model_13/tf.reshape_14/Reshape/shape", "shape": [3], "dtype": "int32"}, {"name": "model_13/tf.strided_slice_18/ones_like/tensor", "shape": [3], "dtype": "int32"}, {"name": "model_13/tf.strided_slice_18/StridedSlice/end", "shape": [3], "dtype": "int32"}, {"name": "model_13/tf.strided_slice_18/ones_like", "shape": [3], "dtype": "int32"}, {"name": "model_13/tf.concat_20/concat/axis", "shape": [], "dtype": "int32"}, {"name": "model_13/tf.math.multiply_252/Mul/y", "shape": [1, 1, 13125], "dtype": "float32", "quantization": {"dtype": "uint8", "min": 8.0, "scale": 0.09411764705882353, "original_dtype": "float32"}}, {"name": "model_13/tf.nn.convolution_36/convolution/filter", "shape": [3, 3, 64, 64], "dtype": "float32", "quantization": {"dtype": "uint8", "min": -0.5234192193723193, "scale": 0.004089212651346244, "original_dtype": "float32"}}, {"name": "model_13/tf.math.add_48/Add/y", "shape": [64], "dtype": "float32", "quantization": {"dtype": "uint8", "min": -2.7752232719870173, "scale": 0.03016547034768497, "original_dtype": "float32"}}, {"name": "model_13/tf.nn.convolution_38/convolution/filter", "shape": [3, 3, 64, 64], "dtype": "float32", "quantization": {"dtype": "uint8", "min": -0.9680751814561731, "scale": 0.0068657814287671854, "original_dtype": "float32"}}, {"name": "model_13/tf.math.add_50/Add/y", "shape": [64], "dtype": "float32", "quantization": {"dtype": "uint8", "min": -2.5020697238398535, "scale": 0.02909383399813783, "original_dtype": "float32"}}, {"name": "model_13/tf.nn.convolution_41/convolution/filter", "shape": [1, 1, 64, 64], "dtype": "float32", "quantization": {"dtype": "uint8", "min": -1.2182521446078431, "scale": 0.009371170343137255, "original_dtype": "float32"}}, {"name": "model_13/tf.math.add_53/Add/y", "shape": [64], "dtype": "float32", "quantization": {"dtype": "uint8", "min": -1.3103170955882353, "scale": 0.017470894607843138, "original_dtype": "float32"}}, {"name": "model_13/tf.nn.convolution_37/convolution/filter", "shape": [3, 3, 64, 64], "dtype": "float32", "quantization": {"dtype": "uint8", "min": -1.1428799208472757, "scale": 0.0094452886020436, "original_dtype": "float32"}}, {"name": "model_13/tf.math.add_49/Add/y", "shape": [64], "dtype": "float32", "quantization": {"dtype": "uint8", "min": -3.5087951155269845, "scale": 0.03077890452216653, "original_dtype": "float32"}}, {"name": "model_13/tf.nn.convolution_39/convolution/filter", "shape": [3, 3, 64, 64], "dtype": "float32", "quantization": {"dtype": "uint8", "min": -0.8478719725328333, "scale": 0.00614399980096256, "original_dtype": "float32"}}, {"name": "model_13/tf.math.add_51/Add/y", "shape": [64], "dtype": "float32", "quantization": {"dtype": "uint8", "min": -1.6930467287699382, "scale": 0.019918196809058097, "original_dtype": "float32"}}, {"name": "model_13/tf.nn.convolution_42/convolution/filter", "shape": [1, 1, 64, 7], "dtype": "float32", "quantization": {"dtype": "uint8", "min": -0.5106196384803922, "scale": 0.0033815870098039217, "original_dtype": "float32"}}, {"name": "model_13/tf.math.add_54/Add/y", "shape": [7], "dtype": "float32", "quantization": {"dtype": "uint8", "min": -9.8515625, "scale": 0.0015931372549019608, "original_dtype": "float32"}}, {"name": "model_13/tf.concat_10/concat/axis", "shape": [], "dtype": "int32"}, {"name": "model_13/tf.compat.v1.transpose_49/transpose/perm", "shape": [4], "dtype": "int32"}, {"name": "model_13/tf.reshape_2/Reshape/shape", "shape": [3], "dtype": "int32"}, {"name": "model_13/tf.nn.convolution_47/convolution/filter", "shape": [3, 3, 128, 64], "dtype": "float32", "quantization": {"dtype": "uint8", "min": -0.6288157533196842, "scale": 0.005515927660698985, "original_dtype": "float32"}}, {"name": "model_13/tf.math.add_59/Add/y", "shape": [64], "dtype": "float32", "quantization": {"dtype": "uint8", "min": -2.4105891657810585, "scale": 0.023178741978664024, "original_dtype": "float32"}}, {"name": "model_13/tf.nn.convolution_49/convolution/filter", "shape": [3, 3, 64, 64], "dtype": "float32", "quantization": {"dtype": "uint8", "min": -0.7946955919265747, "scale": 0.007791133254182105, "original_dtype": "float32"}}, {"name": "model_13/tf.math.add_61/Add/y", "shape": [64], "dtype": "float32", "quantization": {"dtype": "uint8", "min": -2.3616275843452, "scale": 0.017113243364820292, "original_dtype": "float32"}}, {"name": "model_13/tf.nn.convolution_52/convolution/filter", "shape": [1, 1, 64, 64], "dtype": "float32", "quantization": {"dtype": "uint8", "min": -0.6789943321078431, "scale": 0.0063457414215686275, "original_dtype": "float32"}}, {"name": "model_13/tf.math.add_64/Add/y", "shape": [64], "dtype": "float32", "quantization": {"dtype": "uint8", "min": -1.26137025122549, "scale": 0.01776577818627451, "original_dtype": "float32"}}, {"name": "model_13/tf.nn.convolution_48/convolution/filter", "shape": [3, 3, 128, 64], "dtype": "float32", "quantization": {"dtype": "uint8", "min": -0.5373498664182775, "scale": 0.004975461726095162, "original_dtype": "float32"}}, {"name": "model_13/tf.math.add_60/Add/y", "shape": [64], "dtype": "float32", "quantization": {"dtype": "uint8", "min": -0.9644371481502758, "scale": 0.016073952469171263, "original_dtype": "float32"}}, {"name": "model_13/tf.nn.convolution_50/convolution/filter", "shape": [3, 3, 64, 64], "dtype": "float32", "quantization": {"dtype": "uint8", "min": -0.4225357259021086, "scale": 0.0030618530862471637, "original_dtype": "float32"}}, {"name": "model_13/tf.math.add_62/Add/y", "shape": [64], "dtype": "float32", "quantization": {"dtype": "uint8", "min": -0.11594098040870592, "scale": 0.010540089128064175, "original_dtype": "float32"}}, {"name": "model_13/tf.nn.convolution_53/convolution/filter", "shape": [1, 1, 64, 7], "dtype": "float32", "quantization": {"dtype": "uint8", "min": -0.3885914522058823, "scale": 0.0026079963235294116, "original_dtype": "float32"}}, {"name": "model_13/tf.math.add_65/Add/y", "shape": [7], "dtype": "float32", "quantization": {"dtype": "uint8", "min": -8.640625, "scale": 0.0005514705882352941, "original_dtype": "float32"}}, {"name": "model_13/tf.concat_13/concat/axis", "shape": [], "dtype": "int32"}, {"name": "model_13/tf.compat.v1.transpose_63/transpose/perm", "shape": [4], "dtype": "int32"}, {"name": "model_13/tf.reshape_5/Reshape/shape", "shape": [3], "dtype": "int32"}, {"name": "model_13/tf.nn.convolution_57/convolution/filter", "shape": [3, 3, 256, 64], "dtype": "float32", "quantization": {"dtype": "uint8", "min": -0.46716865640060573, "scale": 0.0033609255856158686, "original_dtype": "float32"}}, {"name": "model_13/tf.math.add_69/Add/y", "shape": [64], "dtype": "float32", "quantization": {"dtype": "uint8", "min": -1.5703241497862572, "scale": 0.012079416536817364, "original_dtype": "float32"}}, {"name": "model_13/tf.nn.convolution_59/convolution/filter", "shape": [3, 3, 64, 64], "dtype": "float32", "quantization": {"dtype": "uint8", "min": -1.1075762031125087, "scale": 0.007334941742466945, "original_dtype": "float32"}}, {"name": "model_13/tf.math.add_71/Add/y", "shape": [64], "dtype": "float32", "quantization": {"dtype": "uint8", "min": -1.456110856112312, "scale": 0.01617900951235902, "original_dtype": "float32"}}, {"name": "model_13/tf.nn.convolution_61/convolution/filter", "shape": [1, 1, 64, 64], "dtype": "float32", "quantization": {"dtype": "uint8", "min": -0.26989889705882353, "scale": 0.003213082107843137, "original_dtype": "float32"}}, {"name": "model_13/tf.math.add_73/Add/y", "shape": [64], "dtype": "float32", "quantization": {"dtype": "uint8", "min": -1.3133961397058824, "scale": 0.016214767156862746, "original_dtype": "float32"}}, {"name": "model_13/tf.strided_slice_14/ones_like/tensor", "shape": [4], "dtype": "int32"}, {"name": "model_13/tf.strided_slice_14/StridedSlice/end", "shape": [4], "dtype": "int32"}, {"name": "model_13/tf.strided_slice_14/ones_like", "shape": [4], "dtype": "int32"}, {"name": "model_13/tf.strided_slice_12/ones_like/tensor", "shape": [4], "dtype": "int32"}, {"name": "model_13/tf.strided_slice_12/StridedSlice/end", "shape": [4], "dtype": "int32"}, {"name": "model_13/tf.strided_slice_12/ones_like", "shape": [4], "dtype": "int32"}, {"name": "model_13/tf.strided_slice_10/ones_like/tensor", "shape": [4], "dtype": "int32"}, {"name": "model_13/tf.strided_slice_10/StridedSlice/end", "shape": [4], "dtype": "int32"}, {"name": "model_13/tf.strided_slice_10/ones_like", "shape": [4], "dtype": "int32"}, {"name": "model_13/tf.image.resize_1/resize/size", "shape": [2], "dtype": "int32"}, {"name": "model_13/tf.concat_7/concat/axis", "shape": [], "dtype": "int32"}, {"name": "model_13/tf.nn.convolution_31/convolution/filter", "shape": [1, 1, 192, 64], "dtype": "float32", "quantization": {"dtype": "uint8", "min": -0.5670121997010474, "scale": 0.004888036204319374, "original_dtype": "float32"}}, {"name": "model_13/tf.math.add_43/Add/y", "shape": [64], "dtype": "float32", "quantization": {"dtype": "uint8", "min": -3.271191345944124, "scale": 0.020573530477636, "original_dtype": "float32"}}, {"name": "model_13/tf.strided_slice_11/ones_like/tensor", "shape": [4], "dtype": "int32"}, {"name": "model_13/tf.strided_slice_11/StridedSlice/end", "shape": [4], "dtype": "int32"}, {"name": "model_13/tf.strided_slice_11/ones_like", "shape": [4], "dtype": "int32"}, {"name": "model_13/tf.nn.convolution_32/convolution/filter", "shape": [3, 3, 32, 32], "dtype": "float32", "quantization": {"dtype": "uint8", "min": -0.5229213237762451, "scale": 0.003845009733648861, "original_dtype": "float32"}}, {"name": "model_13/tf.math.add_44/Add/y", "shape": [32], "dtype": "float32", "quantization": {"dtype": "uint8", "min": -2.9769981524523565, "scale": 0.021113462074130188, "original_dtype": "float32"}}, {"name": "model_13/tf.nn.convolution_33/convolution/filter", "shape": [3, 3, 32, 32], "dtype": "float32", "quantization": {"dtype": "uint8", "min": -0.8492591409122243, "scale": 0.0066348370383767525, "original_dtype": "float32"}}, {"name": "model_13/tf.math.add_45/Add/y", "shape": [32], "dtype": "float32", "quantization": {"dtype": "uint8", "min": -1.7726119995117187, "scale": 0.02014331817626953, "original_dtype": "float32"}}, {"name": "model_13/tf.concat_8/concat/axis", "shape": [], "dtype": "int32"}, {"name": "model_13/tf.nn.convolution_34/convolution/filter", "shape": [1, 1, 96, 64], "dtype": "float32", "quantization": {"dtype": "uint8", "min": -0.8170431109035716, "scale": 0.0061897205371482696, "original_dtype": "float32"}}, {"name": "model_13/tf.math.add_46/Add/y", "shape": [64], "dtype": "float32", "quantization": {"dtype": "uint8", "min": -3.1398257966135064, "scale": 0.023431535795623182, "original_dtype": "float32"}}, {"name": "model_13/tf.compat.v1.pad_5/Pad/paddings", "shape": [4, 2], "dtype": "int32"}, {"name": "model_13/tf.nn.convolution_35/convolution/filter", "shape": [3, 3, 64, 64], "dtype": "float32", "quantization": {"dtype": "uint8", "min": -0.4052636522872775, "scale": 0.0037875107690399767, "original_dtype": "float32"}}, {"name": "model_13/tf.math.add_47/Add/y", "shape": [64], "dtype": "float32", "quantization": {"dtype": "uint8", "min": -4.40414831311095, "scale": 0.029166545119940067, "original_dtype": "float32"}}, {"name": "model_13/tf.strided_slice_8/ones_like/tensor", "shape": [4], "dtype": "int32"}, {"name": "model_13/tf.strided_slice_8/StridedSlice/end", "shape": [4], "dtype": "int32"}, {"name": "model_13/tf.strided_slice_8/ones_like", "shape": [4], "dtype": "int32"}, {"name": "model_13/tf.image.resize/resize/size", "shape": [2], "dtype": "int32"}, {"name": "model_13/tf.concat_5/concat/axis", "shape": [], "dtype": "int32"}, {"name": "model_13/tf.nn.convolution_27/convolution/filter", "shape": [1, 1, 384, 128], "dtype": "float32", "quantization": {"dtype": "uint8", "min": -1.0752000761967078, "scale": 0.009349565879971372, "original_dtype": "float32"}}, {"name": "model_13/tf.math.add_39/Add/y", "shape": [128], "dtype": "float32", "quantization": {"dtype": "uint8", "min": -3.768274404488358, "scale": 0.022977282954197303, "original_dtype": "float32"}}, {"name": "model_13/tf.strided_slice_9/ones_like/tensor", "shape": [4], "dtype": "int32"}, {"name": "model_13/tf.strided_slice_9/StridedSlice/end", "shape": [4], "dtype": "int32"}, {"name": "model_13/tf.strided_slice_9/ones_like", "shape": [4], "dtype": "int32"}, {"name": "model_13/tf.nn.convolution_28/convolution/filter", "shape": [3, 3, 64, 64], "dtype": "float32", "quantization": {"dtype": "uint8", "min": -0.3787674784660339, "scale": 0.0030794103940327963, "original_dtype": "float32"}}, {"name": "model_13/tf.math.add_40/Add/y", "shape": [64], "dtype": "float32", "quantization": {"dtype": "uint8", "min": -1.5745568808387307, "scale": 0.01444547597099753, "original_dtype": "float32"}}, {"name": "model_13/tf.nn.convolution_29/convolution/filter", "shape": [3, 3, 64, 64], "dtype": "float32", "quantization": {"dtype": "uint8", "min": -0.5482604082892922, "scale": 0.004895182216868681, "original_dtype": "float32"}}, {"name": "model_13/tf.math.add_41/Add/y", "shape": [64], "dtype": "float32", "quantization": {"dtype": "uint8", "min": -2.8369096054750327, "scale": 0.015587415414697983, "original_dtype": "float32"}}, {"name": "model_13/tf.concat_6/concat/axis", "shape": [], "dtype": "int32"}, {"name": "model_13/tf.nn.convolution_30/convolution/filter", "shape": [1, 1, 192, 128], "dtype": "float32", "quantization": {"dtype": "uint8", "min": -0.647299220047745, "scale": 0.006673187835543763, "original_dtype": "float32"}}, {"name": "model_13/tf.math.add_42/Add/y", "shape": [128], "dtype": "float32", "quantization": {"dtype": "uint8", "min": -2.9267288941963048, "scale": 0.01616977289611218, "original_dtype": "float32"}}, {"name": "model_13/tf.concat_9/concat/axis", "shape": [], "dtype": "int32"}, {"name": "model_13/tf.nn.convolution_40/convolution/filter", "shape": [1, 1, 192, 128], "dtype": "float32", "quantization": {"dtype": "uint8", "min": -0.9037521680196126, "scale": 0.007116158803304036, "original_dtype": "float32"}}, {"name": "model_13/tf.math.add_52/Add/y", "shape": [128], "dtype": "float32", "quantization": {"dtype": "uint8", "min": -3.1483572006225584, "scale": 0.018966007232666015, "original_dtype": "float32"}}, {"name": "model_13/tf.strided_slice_13/ones_like/tensor", "shape": [4], "dtype": "int32"}, {"name": "model_13/tf.strided_slice_13/StridedSlice/end", "shape": [4], "dtype": "int32"}, {"name": "model_13/tf.strided_slice_13/ones_like", "shape": [4], "dtype": "int32"}, {"name": "model_13/tf.nn.convolution_43/convolution/filter", "shape": [3, 3, 64, 64], "dtype": "float32", "quantization": {"dtype": "uint8", "min": -0.5630242590810738, "scale": 0.004540518218395757, "original_dtype": "float32"}}, {"name": "model_13/tf.math.add_55/Add/y", "shape": [64], "dtype": "float32", "quantization": {"dtype": "uint8", "min": -2.442226457595825, "scale": 0.01661378542582194, "original_dtype": "float32"}}, {"name": "model_13/tf.nn.convolution_44/convolution/filter", "shape": [3, 3, 64, 64], "dtype": "float32", "quantization": {"dtype": "uint8", "min": -1.850734155318316, "scale": 0.012504960508907542, "original_dtype": "float32"}}, {"name": "model_13/tf.math.add_56/Add/y", "shape": [64], "dtype": "float32", "quantization": {"dtype": "uint8", "min": -4.6436108561123115, "scale": 0.032024902455946976, "original_dtype": "float32"}}, {"name": "model_13/tf.concat_11/concat/axis", "shape": [], "dtype": "int32"}, {"name": "model_13/tf.nn.convolution_45/convolution/filter", "shape": [1, 1, 192, 128], "dtype": "float32", "quantization": {"dtype": "uint8", "min": -1.3285159629933976, "scale": 0.0075057399039175, "original_dtype": "float32"}}, {"name": "model_13/tf.math.add_57/Add/y", "shape": [128], "dtype": "float32", "quantization": {"dtype": "uint8", "min": -3.659703101363837, "scale": 0.022315262813194126, "original_dtype": "float32"}}, {"name": "model_13/tf.compat.v1.pad_6/Pad/paddings", "shape": [4, 2], "dtype": "int32"}, {"name": "model_13/tf.nn.convolution_46/convolution/filter", "shape": [3, 3, 128, 128], "dtype": "float32", "quantization": {"dtype": "uint8", "min": -0.7367551186505487, "scale": 0.005667347066542682, "original_dtype": "float32"}}, {"name": "model_13/tf.math.add_58/Add/y", "shape": [128], "dtype": "float32", "quantization": {"dtype": "uint8", "min": -3.216104013779584, "scale": 0.018483356401032092, "original_dtype": "float32"}}, {"name": "model_13/tf.strided_slice_6/ones_like/tensor", "shape": [4], "dtype": "int32"}, {"name": "model_13/tf.strided_slice_6/StridedSlice/end", "shape": [4], "dtype": "int32"}, {"name": "model_13/tf.strided_slice_6/ones_like", "shape": [4], "dtype": "int32"}, {"name": "model_13/tf.strided_slice_4/ones_like/tensor", "shape": [4], "dtype": "int32"}, {"name": "model_13/tf.strided_slice_4/StridedSlice/end", "shape": [4], "dtype": "int32"}, {"name": "model_13/tf.strided_slice_4/ones_like", "shape": [4], "dtype": "int32"}, {"name": "model_13/tf.strided_slice_2/ones_like/tensor", "shape": [4], "dtype": "int32"}, {"name": "model_13/tf.strided_slice_2/StridedSlice/end", "shape": [4], "dtype": "int32"}, {"name": "model_13/tf.strided_slice_2/ones_like", "shape": [4], "dtype": "int32"}, {"name": "model_13/tf.strided_slice/ones_like/tensor", "shape": [4], "dtype": "int32"}, {"name": "model_13/tf.strided_slice/StridedSlice/end", "shape": [4], "dtype": "int32"}, {"name": "model_13/tf.strided_slice/ones_like", "shape": [4], "dtype": "int32"}, {"name": "model_13/tf.compat.v1.pad/Pad/paddings", "shape": [4, 2], "dtype": "int32"}, {"name": "model_13/tf.nn.convolution/convolution/filter", "shape": [3, 3, 3, 16], "dtype": "float32", "quantization": {"dtype": "uint8", "min": -16.52658504411286, "scale": 0.13546381183699066, "original_dtype": "float32"}}, {"name": "model_13/tf.math.add/Add/y", "shape": [16], "dtype": "float32", "quantization": {"dtype": "uint8", "min": -4.8213440988578045, "scale": 0.04548437829111136, "original_dtype": "float32"}}, {"name": "model_13/tf.compat.v1.pad_1/Pad/paddings", "shape": [4, 2], "dtype": "int32"}, {"name": "model_13/tf.nn.convolution_1/convolution/filter", "shape": [3, 3, 16, 32], "dtype": "float32", "quantization": {"dtype": "uint8", "min": -1.7482749003990026, "scale": 0.01409899113225002, "original_dtype": "float32"}}, {"name": "model_13/tf.math.add_1/Add/y", "shape": [32], "dtype": "float32", "quantization": {"dtype": "uint8", "min": -4.173556582132975, "scale": 0.04258731206258138, "original_dtype": "float32"}}, {"name": "model_13/tf.nn.convolution_2/convolution/filter", "shape": [1, 1, 32, 32], "dtype": "float32", "quantization": {"dtype": "uint8", "min": -0.5943488438924154, "scale": 0.0056070645650227865, "original_dtype": "float32"}}, {"name": "model_13/tf.math.add_2/Add/y", "shape": [32], "dtype": "float32", "quantization": {"dtype": "uint8", "min": -1.1845616060144761, "scale": 0.02467836679196825, "original_dtype": "float32"}}, {"name": "model_13/tf.strided_slice_1/ones_like/tensor", "shape": [4], "dtype": "int32"}, {"name": "model_13/tf.strided_slice_1/StridedSlice/end", "shape": [4], "dtype": "int32"}, {"name": "model_13/tf.strided_slice_1/ones_like", "shape": [4], "dtype": "int32"}, {"name": "model_13/tf.nn.convolution_3/convolution/filter", "shape": [3, 3, 16, 16], "dtype": "float32", "quantization": {"dtype": "uint8", "min": -1.2510469305749032, "scale": 0.01078488733254227, "original_dtype": "float32"}}, {"name": "model_13/tf.math.add_3/Add/y", "shape": [16], "dtype": "float32", "quantization": {"dtype": "uint8", "min": -2.7108849469353173, "scale": 0.043029919792624084, "original_dtype": "float32"}}, {"name": "model_13/tf.nn.convolution_4/convolution/filter", "shape": [3, 3, 16, 16], "dtype": "float32", "quantization": {"dtype": "uint8", "min": -0.7945740437975117, "scale": 0.005227460814457314, "original_dtype": "float32"}}, {"name": "model_13/tf.math.add_4/Add/y", "shape": [16], "dtype": "float32", "quantization": {"dtype": "uint8", "min": -3.2362935215819117, "scale": 0.037631320018394324, "original_dtype": "float32"}}, {"name": "model_13/tf.concat/concat/axis", "shape": [], "dtype": "int32"}, {"name": "model_13/tf.nn.convolution_5/convolution/filter", "shape": [1, 1, 48, 32], "dtype": "float32", "quantization": {"dtype": "uint8", "min": -0.6555018004249125, "scale": 0.0050423215417300955, "original_dtype": "float32"}}, {"name": "model_13/tf.math.add_7/Add/y", "shape": [32], "dtype": "float32", "quantization": {"dtype": "uint8", "min": -2.60102757285623, "scale": 0.03292439965640798, "original_dtype": "float32"}}, {"name": "model_13/tf.compat.v1.pad_2/Pad/paddings", "shape": [4, 2], "dtype": "int32"}, {"name": "model_13/tf.nn.convolution_6/convolution/filter", "shape": [3, 3, 32, 64], "dtype": "float32", "quantization": {"dtype": "uint8", "min": -0.3090394812471726, "scale": 0.002395654893388935, "original_dtype": "float32"}}, {"name": "model_13/tf.math.add_8/Add/y", "shape": [64], "dtype": "float32", "quantization": {"dtype": "uint8", "min": -2.8398210114123774, "scale": 0.02535554474475337, "original_dtype": "float32"}}, {"name": "model_13/tf.nn.convolution_7/convolution/filter", "shape": [1, 1, 64, 64], "dtype": "float32", "quantization": {"dtype": "uint8", "min": -1.0618680673487046, "scale": 0.009154035063350902, "original_dtype": "float32"}}, {"name": "model_13/tf.math.add_9/Add/y", "shape": [64], "dtype": "float32", "quantization": {"dtype": "uint8", "min": -3.8804937811458813, "scale": 0.02874439837885838, "original_dtype": "float32"}}, {"name": "model_13/tf.strided_slice_3/ones_like/tensor", "shape": [4], "dtype": "int32"}, {"name": "model_13/tf.strided_slice_3/StridedSlice/end", "shape": [4], "dtype": "int32"}, {"name": "model_13/tf.strided_slice_3/ones_like", "shape": [4], "dtype": "int32"}, {"name": "model_13/tf.nn.convolution_8/convolution/filter", "shape": [3, 3, 32, 32], "dtype": "float32", "quantization": {"dtype": "uint8", "min": -0.5183703880684049, "scale": 0.0041804063553903615, "original_dtype": "float32"}}, {"name": "model_13/tf.math.add_10/Add/y", "shape": [32], "dtype": "float32", "quantization": {"dtype": "uint8", "min": -2.08446782430013, "scale": 0.020042959849039713, "original_dtype": "float32"}}, {"name": "model_13/tf.nn.convolution_9/convolution/filter", "shape": [3, 3, 32, 32], "dtype": "float32", "quantization": {"dtype": "uint8", "min": -0.6209104397717644, "scale": 0.0047038669679679125, "original_dtype": "float32"}}, {"name": "model_13/tf.math.add_11/Add/y", "shape": [32], "dtype": "float32", "quantization": {"dtype": "uint8", "min": -1.3907249001895678, "scale": 0.014486717710308, "original_dtype": "float32"}}, {"name": "model_13/tf.nn.convolution_10/convolution/filter", "shape": [3, 3, 32, 32], "dtype": "float32", "quantization": {"dtype": "uint8", "min": -0.331284858899958, "scale": 0.0026292449119044285, "original_dtype": "float32"}}, {"name": "model_13/tf.math.add_14/Add/y", "shape": [32], "dtype": "float32", "quantization": {"dtype": "uint8", "min": -1.402374060013715, "scale": 0.011494869344374712, "original_dtype": "float32"}}, {"name": "model_13/tf.nn.convolution_11/convolution/filter", "shape": [3, 3, 32, 32], "dtype": "float32", "quantization": {"dtype": "uint8", "min": -0.9827303259980446, "scale": 0.008471813155155557, "original_dtype": "float32"}}, {"name": "model_13/tf.math.add_15/Add/y", "shape": [32], "dtype": "float32", "quantization": {"dtype": "uint8", "min": -2.136808933931239, "scale": 0.019603751687442557, "original_dtype": "float32"}}, {"name": "model_13/tf.concat_1/concat/axis", "shape": [], "dtype": "int32"}, {"name": "model_13/tf.nn.convolution_12/convolution/filter", "shape": [1, 1, 128, 64], "dtype": "float32", "quantization": {"dtype": "uint8", "min": -0.5607599090127383, "scale": 0.004450475468355066, "original_dtype": "float32"}}, {"name": "model_13/tf.math.add_18/Add/y", "shape": [64], "dtype": "float32", "quantization": {"dtype": "uint8", "min": -3.8796640882305073, "scale": 0.032878509222292435, "original_dtype": "float32"}}, {"name": "model_13/tf.compat.v1.pad_3/Pad/paddings", "shape": [4, 2], "dtype": "int32"}, {"name": "model_13/tf.nn.convolution_13/convolution/filter", "shape": [3, 3, 64, 128], "dtype": "float32", "quantization": {"dtype": "uint8", "min": -0.45745925377396973, "scale": 0.0030701963340534883, "original_dtype": "float32"}}, {"name": "model_13/tf.math.add_19/Add/y", "shape": [128], "dtype": "float32", "quantization": {"dtype": "uint8", "min": -3.245457707199396, "scale": 0.021074400696099973, "original_dtype": "float32"}}, {"name": "model_13/tf.nn.convolution_14/convolution/filter", "shape": [1, 1, 128, 128], "dtype": "float32", "quantization": {"dtype": "uint8", "min": -1.4061415396484676, "scale": 0.01162100445990469, "original_dtype": "float32"}}, {"name": "model_13/tf.math.add_20/Add/y", "shape": [128], "dtype": "float32", "quantization": {"dtype": "uint8", "min": -4.3418026120054956, "scale": 0.026967718086990656, "original_dtype": "float32"}}, {"name": "model_13/tf.strided_slice_5/ones_like/tensor", "shape": [4], "dtype": "int32"}, {"name": "model_13/tf.strided_slice_5/StridedSlice/end", "shape": [4], "dtype": "int32"}, {"name": "model_13/tf.strided_slice_5/ones_like", "shape": [4], "dtype": "int32"}, {"name": "model_13/tf.nn.convolution_15/convolution/filter", "shape": [3, 3, 64, 64], "dtype": "float32", "quantization": {"dtype": "uint8", "min": -0.7951387124903061, "scale": 0.006310624702304017, "original_dtype": "float32"}}, {"name": "model_13/tf.math.add_21/Add/y", "shape": [64], "dtype": "float32", "quantization": {"dtype": "uint8", "min": -1.7972029657924877, "scale": 0.013824638198403752, "original_dtype": "float32"}}, {"name": "model_13/tf.nn.convolution_16/convolution/filter", "shape": [3, 3, 64, 64], "dtype": "float32", "quantization": {"dtype": "uint8", "min": -0.41775222292133407, "scale": 0.0047471843513787965, "original_dtype": "float32"}}, {"name": "model_13/tf.math.add_22/Add/y", "shape": [64], "dtype": "float32", "quantization": {"dtype": "uint8", "min": -2.6476314605451097, "scale": 0.015129322631686341, "original_dtype": "float32"}}, {"name": "model_13/tf.nn.convolution_17/convolution/filter", "shape": [3, 3, 64, 64], "dtype": "float32", "quantization": {"dtype": "uint8", "min": -0.305401391842786, "scale": 0.0024047353688408345, "original_dtype": "float32"}}, {"name": "model_13/tf.math.add_25/Add/y", "shape": [64], "dtype": "float32", "quantization": {"dtype": "uint8", "min": -1.424060650432811, "scale": 0.01130206865422866, "original_dtype": "float32"}}, {"name": "model_13/tf.nn.convolution_18/convolution/filter", "shape": [3, 3, 64, 64], "dtype": "float32", "quantization": {"dtype": "uint8", "min": -0.9437504324258542, "scale": 0.010973842237509933, "original_dtype": "float32"}}, {"name": "model_13/tf.math.add_26/Add/y", "shape": [64], "dtype": "float32", "quantization": {"dtype": "uint8", "min": -2.9580488924886668, "scale": 0.021280927284091127, "original_dtype": "float32"}}, {"name": "model_13/tf.concat_2/concat/axis", "shape": [], "dtype": "int32"}, {"name": "model_13/tf.nn.convolution_19/convolution/filter", "shape": [1, 1, 256, 128], "dtype": "float32", "quantization": {"dtype": "uint8", "min": -0.40699680237209096, "scale": 0.0030147911286821554, "original_dtype": "float32"}}, {"name": "model_13/tf.math.add_29/Add/y", "shape": [128], "dtype": "float32", "quantization": {"dtype": "uint8", "min": -2.053581910974839, "scale": 0.013969944972617953, "original_dtype": "float32"}}, {"name": "model_13/tf.compat.v1.pad_4/Pad/paddings", "shape": [4, 2], "dtype": "int32"}, {"name": "model_13/tf.nn.convolution_20/convolution/filter", "shape": [3, 3, 128, 256], "dtype": "float32", "quantization": {"dtype": "uint8", "min": -0.3070677162385454, "scale": 0.0032322917498794255, "original_dtype": "float32"}}, {"name": "model_13/tf.math.add_30/Add/y", "shape": [256], "dtype": "float32", "quantization": {"dtype": "uint8", "min": -2.785721957917307, "scale": 0.018448489787531833, "original_dtype": "float32"}}, {"name": "model_13/tf.nn.convolution_21/convolution/filter", "shape": [1, 1, 256, 256], "dtype": "float32", "quantization": {"dtype": "uint8", "min": -0.7460392035690009, "scale": 0.0067821745779000076, "original_dtype": "float32"}}, {"name": "model_13/tf.math.add_31/Add/y", "shape": [256], "dtype": "float32", "quantization": {"dtype": "uint8", "min": -3.1801115858788584, "scale": 0.01939092430413938, "original_dtype": "float32"}}, {"name": "model_13/tf.strided_slice_7/ones_like/tensor", "shape": [4], "dtype": "int32"}, {"name": "model_13/tf.strided_slice_7/StridedSlice/end", "shape": [4], "dtype": "int32"}, {"name": "model_13/tf.strided_slice_7/ones_like", "shape": [4], "dtype": "int32"}, {"name": "model_13/tf.nn.convolution_22/convolution/filter", "shape": [3, 3, 128, 128], "dtype": "float32", "quantization": {"dtype": "uint8", "min": -0.4744429490145515, "scale": 0.004161780254513609, "original_dtype": "float32"}}, {"name": "model_13/tf.math.add_32/Add/y", "shape": [128], "dtype": "float32", "quantization": {"dtype": "uint8", "min": -3.2532638493706196, "scale": 0.018696918674543792, "original_dtype": "float32"}}, {"name": "model_13/tf.nn.convolution_23/convolution/filter", "shape": [3, 3, 128, 128], "dtype": "float32", "quantization": {"dtype": "uint8", "min": -0.7561160730380638, "scale": 0.005771878420137892, "original_dtype": "float32"}}, {"name": "model_13/tf.math.add_33/Add/y", "shape": [128], "dtype": "float32", "quantization": {"dtype": "uint8", "min": -2.1809675497167254, "scale": 0.02627671746646657, "original_dtype": "float32"}}, {"name": "model_13/tf.concat_3/concat/axis", "shape": [], "dtype": "int32"}, {"name": "model_13/tf.nn.convolution_24/convolution/filter", "shape": [1, 1, 384, 256], "dtype": "float32", "quantization": {"dtype": "uint8", "min": -0.3974202099968405, "scale": 0.0033118350833070045, "original_dtype": "float32"}}, {"name": "model_13/tf.math.add_36/Add/y", "shape": [256], "dtype": "float32", "quantization": {"dtype": "uint8", "min": -1.6008576823215859, "scale": 0.012910142599367628, "original_dtype": "float32"}}, {"name": "model_13/tf.nn.convolution_25/convolution/filter", "shape": [1, 1, 256, 128], "dtype": "float32", "quantization": {"dtype": "uint8", "min": -0.6549998939037323, "scale": 0.0042810450581943285, "original_dtype": "float32"}}, {"name": "model_13/tf.math.add_37/Add/y", "shape": [128], "dtype": "float32", "quantization": {"dtype": "uint8", "min": -0.06839931291692397, "scale": 0.011399885486153996, "original_dtype": "float32"}}, {"name": "model_13/tf.concat_4/concat/axis", "shape": [], "dtype": "int32"}, {"name": "model_13/tf.nn.convolution_26/convolution/filter", "shape": [1, 1, 512, 256], "dtype": "float32", "quantization": {"dtype": "uint8", "min": -0.25391512384601667, "scale": 0.002047702611661425, "original_dtype": "float32"}}, {"name": "model_13/tf.math.add_38/Add/y", "shape": [256], "dtype": "float32", "quantization": {"dtype": "uint8", "min": -7.333096111522002, "scale": 0.046120101330327054, "original_dtype": "float32"}}, {"name": "model_13/tf.concat_12/concat/axis", "shape": [], "dtype": "int32"}, {"name": "model_13/tf.nn.convolution_51/convolution/filter", "shape": [1, 1, 384, 256], "dtype": "float32", "quantization": {"dtype": "uint8", "min": -1.1993902912326886, "scale": 0.008754673658632764, "original_dtype": "float32"}}, {"name": "model_13/tf.math.add_63/Add/y", "shape": [256], "dtype": "float32", "quantization": {"dtype": "uint8", "min": -3.1988013585408526, "scale": 0.01859768231709798, "original_dtype": "float32"}}, {"name": "model_13/tf.strided_slice_15/ones_like/tensor", "shape": [4], "dtype": "int32"}, {"name": "model_13/tf.strided_slice_15/StridedSlice/end", "shape": [4], "dtype": "int32"}, {"name": "model_13/tf.strided_slice_15/ones_like", "shape": [4], "dtype": "int32"}, {"name": "model_13/tf.nn.convolution_54/convolution/filter", "shape": [3, 3, 128, 128], "dtype": "float32", "quantization": {"dtype": "uint8", "min": -0.66718517518511, "scale": 0.006294199765897264, "original_dtype": "float32"}}, {"name": "model_13/tf.math.add_66/Add/y", "shape": [128], "dtype": "float32", "quantization": {"dtype": "uint8", "min": -3.2126274856866575, "scale": 0.02311242795458027, "original_dtype": "float32"}}, {"name": "model_13/tf.nn.convolution_55/convolution/filter", "shape": [3, 3, 128, 128], "dtype": "float32", "quantization": {"dtype": "uint8", "min": -1.1037203947703043, "scale": 0.007457570234934489, "original_dtype": "float32"}}, {"name": "model_13/tf.math.add_67/Add/y", "shape": [128], "dtype": "float32", "quantization": {"dtype": "uint8", "min": -2.8728148189245486, "scale": 0.022620589125390146, "original_dtype": "float32"}}, {"name": "model_13/tf.concat_14/concat/axis", "shape": [], "dtype": "int32"}, {"name": "model_13/tf.nn.convolution_56/convolution/filter", "shape": [1, 1, 384, 256], "dtype": "float32", "quantization": {"dtype": "uint8", "min": -2.169846855425367, "scale": 0.013733207945730172, "original_dtype": "float32"}}, {"name": "model_13/tf.math.add_68/Add/y", "shape": [256], "dtype": "float32", "quantization": {"dtype": "uint8", "min": -2.766235201966529, "scale": 0.014113444907992495, "original_dtype": "float32"}}, {"name": "model_13/tf.nn.convolution_58/convolution/filter", "shape": [3, 3, 256, 64], "dtype": "float32", "quantization": {"dtype": "uint8", "min": -0.3689870179868212, "scale": 0.002635621557048723, "original_dtype": "float32"}}, {"name": "model_13/tf.math.add_70/Add/y", "shape": [64], "dtype": "float32", "quantization": {"dtype": "uint8", "min": -1.1173747076707727, "scale": 0.008096918171527339, "original_dtype": "float32"}}, {"name": "model_13/tf.nn.convolution_60/convolution/filter", "shape": [3, 3, 64, 64], "dtype": "float32", "quantization": {"dtype": "uint8", "min": -0.3869982991732803, "scale": 0.003550443111681471, "original_dtype": "float32"}}, {"name": "model_13/tf.math.add_72/Add/y", "shape": [64], "dtype": "float32", "quantization": {"dtype": "uint8", "min": 0.02419428527355194, "scale": 0.00939030536249572, "original_dtype": "float32"}}, {"name": "model_13/tf.nn.convolution_62/convolution/filter", "shape": [1, 1, 64, 7], "dtype": "float32", "quantization": {"dtype": "uint8", "min": -0.29806985294117644, "scale": 0.002113970588235294, "original_dtype": "float32"}}, {"name": "model_13/tf.math.add_74/Add/y", "shape": [7], "dtype": "float32", "quantization": {"dtype": "uint8", "min": -7.1875, "scale": 0.0002144607843137255, "original_dtype": "float32"}}, {"name": "model_13/tf.concat_15/concat/axis", "shape": [], "dtype": "int32"}, {"name": "model_13/tf.compat.v1.transpose_75/transpose/perm", "shape": [4], "dtype": "int32"}, {"name": "model_13/tf.reshape_8/Reshape/shape", "shape": [3], "dtype": "int32"}, {"name": "model_13/tf.concat_16/concat/axis", "shape": [], "dtype": "int32"}, {"name": "model_13/tf.strided_slice_17/StridedSlice/begin", "shape": [3], "dtype": "int32"}, {"name": "model_13/tf.strided_slice_17/StridedSlice/end", "shape": [3], "dtype": "int32"}, {"name": "model_13/tf.strided_slice_17/ones_like", "shape": [3], "dtype": "int32"}, {"name": "model_13/output0/concat/axis", "shape": [], "dtype": "int32"}]}]}